tycho_env/tycho_env/assets/res-estimator-old.pt (torch_old, 21169 bytes, 18 tensors)

exp_avg f4 [32, 6]
00000000: a619 63b6 9008 43b5 1079 d334 6d20 d435
00000010: 7e90 e335 4156 8e35 e413 6eb6 1d0f fbb5
00000020: 7e8b 8fb4 b149 1636 d1e9 b535 9da0 c535
00000030: aee5 89b5 ca7c 3cb4 b7bb f333 de3a 0735
00000040: 91e7 a934 efbc 1c34 ca6d 5236 b0c8 9934
00000050: 9105 6bb5 16e2 afb5 fc1f 67b5 b473 a2b5
00000060: ad68 f7b5 472c 24b6 bcb6 80b5 f723 fe35
00000070: e7f7 cf35 5f5f f435 e9ea 7136 b81b 1936
00000080: fdab 9e35 7039 f0b5 d3a5 bcb3 b456 41b5
00000090: 8cb9 16b6 7364 4ab6 76bf b7b5 3a77 2f36
000000a0: 35d2 dab5 ef6f dc34 e4b7 1b36 960b 8034
000000b0: 3d59 90b4 a658 8ab5 e4e3 afb4 2d01 0fb4
000000c0: b32d f135 6eb5 4836 4c9f b435 a452 2cb6
000000d0: 1ded 0eb5 c91b a4b5 442c d036 2b19 8836
000000e0: 3da3 1335 0086 9cb6 6005 88b6 eb2e 77b6
000000f0: 8851 4234 11d3 8835 7804 cd35 4bff 4635
00000100: 9a0b 9a34 56fb 4d34 c32d 06b6 2536 e3b5
00000110: 366f aeb5 f9c8 f234 93ce 7a35 b0fc 4535
00000120: baba 7c35 b571 bf34 56f7 2435 c237 9334
00000130: db6d 99b3 edb2 6534 f3f1 acb6 253e b5b5
00000140: 7b2c 4635 6216 2c36 cbf6 f235 c382 0136
00000150: 7391 eab5 9ed9 bab6 349e 82b6 2468 e835
00000160: b998 4d35 5485 3c36 0eab f5b5 aa55 90b6
00000170: 1379 3fb6 0c8e fd35 88fb b835 7490 0536
00000180: 23bb 8fb5 4657 32b5 f19a fc34 d24f bd35
00000190: ca53 b435 d03b ad35 0b37 0935 11b2 3fb6
000001a0: ffcf 8bb5 e76a 3736 901b 58b5 9ce2 7035
000001b0: 9b8d 6335 a4bf 8335 de7f 8535 dec1 e1b3
000001c0: 71df 7f34 c22e e9b3 ab70 ae36 0645 8b36
000001d0: fc29 c035 8b78 80b6 ebb7 30b6 2754 49b6
000001e0: 4132 ca36 c301 5b35 1674 adb5 7d88 47b6
000001f0: 9342 3cb6 a02d f6b5 3841 1936 e77a a635
00000200: 76e8 0fb5 1739 36b6 7c1c 42b5 2418 73b5
00000210: 9cf2 5db5 fa99 a236 b5d9 2d36 d8e9 34b6
00000220: 80da c3b5 5d39 23b6 0df0 2036 cff9 1836
00000230: 2c9a 9d35 69c2 a5b5 6146 ecb5 8218 0bb6
00000240: 1c92 0735 2dec 96b5 ebb3 d2b4 4659 5d35
00000250: f037 1634 aa9a 1435 d17e 5436 d6d6 4336
00000260: 533b 0636 2bc5 b2b5 20f3 e0b5 0c85 e4b5
00000270: afe4 8135 f441 d334 5c2d 15b4 6eca 57b5
00000280: 636c 18b5 f5a3 00b5 9809 5035 5c5f 25b4
00000290: db9d 59b5 dab5 91b5 e054 deb1 6c93 58b4
000002a0: c698 6635 f0b1 5e35 8927 4e35 11b8 12b4
000002b0: a669 5235 e84b 8bb2 a308 4b36 b703 3736
000002c0: fd29 7e34 01db 60b6 1ac7 f2b5 052a 1db6
000002d0: c8b2 94b6 0abd 6bb5 fbcf b735 f9f5 6036
000002e0: 1f93 2636 810c d035 2623 6134 774d 0e33
000002f0: 56ba 03b5 c4ad 52b5 af4d 03b5 66f4 98b4
-3.3840565e-06 -7.265562e-07 3.9389897e-07 1.5804668e-06 1.6954871e-06 1.0604928e-06 -3.5476342e-06 -1.8705356e-06
-2.673732e-07 2.2394636e-06 1.35536e-06 1.4724388e-06 -1.0274141e-06 -1.7554262e-07 1.13497144e-07 5.037708e-07
3.164719e-07 1.4597366e-07 3.1356344e-06 2.864449e-07 -8.755242e-07 -1.3104316e-06 -8.610075e-07 -1.2103615e-06
-1.8433399e-06 -2.4463677e-06 -9.589926e-07 1.8934942e-06 1.5494851e-06 1.8207173e-06 3.6048534e-06 2.281491e-06
1.1821973e-06 -1.789811e-06 -8.7845955e-08 -7.202427e-07 -2.2459744e-06 -3.0158815e-06 -1.3690285e-06 2.614643e-06
-1.6303444e-06 4.1059636e-07 2.3203838e-06 2.3850288e-07 -2.688702e-07 -1.0307601e-06 -3.2762102e-07 -1.331834e-07
1.79692e-06 2.9907928e-06 1.3457407e-06 -2.56781e-06 -5.324417e-07 -1.2227039e-06 6.2040363e-06 4.056046e-06
5.499931e-07 -4.664762e-06 -4.0537416e-06 -3.6833178e-06 1.8097319e-07 1.0194218e-06 1.5274991e-06 7.413225e-07
2.8693177e-07 1.9183548e-07 -1.9994193e-06 -1.6928576e-06 -1.2996377e-06 4.522224e-07 9.343286e-07 7.375593e-07
9.414904e-07 3.5659255e-07 6.145468e-07 2.7421453e-07 -7.1446e-08 2.139238e-07 -5.154166e-06 -1.3503637e-06
7.3825476e-07 2.5643026e-06 1.8102231e-06 1.9298611e-06 -1.747669e-06 -5.568566e-06 -3.892719e-06 1.7315656e-06
7.659069e-07 2.809179e-06 -1.8303706e-06 -4.301507e-06 -2.8531692e-06 1.889131e-06 1.3782274e-06 1.9902627e-06
-1.0708794e-06 -6.6437167e-07 4.7051392e-07 1.4104828e-06 1.3435431e-06 1.2906912e-06 5.1116575e-07 -2.8564866e-06
-1.0416842e-06 2.733135e-06 -8.050638e-07 8.973673e-07 8.4770153e-07 9.816035e-07 9.946486e-07 -1.0512643e-07
2.3830013e-07 -1.0858413e-07 5.1987204e-06 4.150558e-06 1.4317334e-06 -3.8287303e-06 -2.6333098e-06 -3.0000317e-06
6.0259194e-06 8.158642e-07 -1.292329e-06 -2.9732757e-06 -2.8052934e-06 -1.8341707e-06 2.283674e-06 1.2403733e-06
-5.3609926e-07 -2.7153344e-06 -7.231208e-07 -9.0559683e-07 -8.268196e-07 4.8459015e-06 2.590573e-06 -2.6958205e-06
-1.4592224e-06 -2.4322283e-06 2.3981586e-06 2.2795173e-06 1.1742281e-06 -1.2350039e-06 -1.7603853e-06 -2.072688e-06
5.0504036e-07 -1.1244607e-06 -3.9246456e-07 8.2458826e-07 1.3990189e-07 5.535936e-07 3.1664279e-06 2.9182315e-06
2.0002087e-06 -1.3319417e-06 -1.6760059e-06 -1.7026045e-06 9.677805e-07 3.93498e-07 -1.3893208e-07 -8.0388315e-07
-5.6782136e-07 -4.7922305e-07 7.75e-07 -1.5401514e-07 -8.106851e-07 -1.0856268e-06 -6.4706995e-09 -2.01702e-07
8.590399e-07 8.296038e-07 7.679851e-07 -1.3664273e-07 7.8384835e-07 -1.6216248e-08 3.0254384e-06 2.7271287e-06
2.3670869e-07 -3.3506078e-06 -1.8088351e-06 -2.3419282e-06 -4.4315566e-06 -8.781941e-07 1.3695093e-06 3.3521776e-06
2.4821563e-06 1.5500847e-06 2.0967545e-07 3.3132405e-08 -4.907246e-07 -7.848396e-07 -4.891435e-07 -2.849003e-07

exp_avg_sq f4 [32, 6]
00000000: ecb1 f72c 653f 042c e89c 062c 7592 a52b
00000010: 153b 092c dcf0 1d2b b936 5a2d 42c1 052d
00000020: 129a d42c f7b9 4f2c 05f9 3a2c 63a4 af2b
00000030: 42bb a92b f803 7b2b 5b73 8c2b 001d a129
00000040: 6936 702b c163 9328 b760 aa2c 3db2 c22b
00000050: b3db 092c d777 162b d0b4 8f2b 3396 002b
00000060: 1bc3 3d2d de4c 472d 0059 2b2d 3e38 fc2b
00000070: 05b0 942c 956d f82b 800e 442d b553 ba2c
00000080: 4a40 9f2c 4e18 032c afe1 722c ed71 802a
00000090: ee0d f02c 120a 1e2d c000 e12c ac62 412c
000000a0: 040c 012d 6ffd f429 87af b52c c16c 302c
000000b0: 6574 432c e5ed cc2a 4889 442c e9c1 c229
000000c0: 5b81 262d 341d 122d b18e e22c e561 7b2c
000000d0: 4174 8e2c 7277 662b bd55 5d2e 51ca 1b2e
000000e0: 27f4 022e 7d46 482d 17ad a02d 44f1 f22c
000000f0: d211 3d2c 0724 832c b393 be2c f95c ce2a
00000100: d138 c62b ede9 d028 06ee 312c a030 772c
00000110: 78b8 852c 68f3 232a ea56 812b ea7d 662a
00000120: a3a9 532c 8fa9 f22b b0eb 2f2c b7bc e22a
00000130: 5bbf 9b2b d0df 8c2a f205 dc2d d8ea 1d2d
00000140: 6b3d 242d a88c 8b2c ea55 a62c b953 212c
00000150: a9ed 282e 90d5 532e ead2 562e 97ff b82b
00000160: 5ddd c32d 2a19 842c e9c2 0b2d 2ed2 6e2d
00000170: 33c7 402d f469 a72b 0d42 722c 515a c92b
00000180: 4a13 b82c 7a7d 4e2c 3a20 852c 8229 a62b
00000190: 5bd8 2a2c ab04 832b d55d 1a2d 95fa 1a2d
000001a0: fd53 002d 56d0 622c c552 d32c aa88 ae2a
000001b0: 7ed7 9e2b 2669 6e2b b278 a12b 35de 5f29
000001c0: 7f0a f32a 8e2a 0528 2ef7 452e c3a3 fc2d
000001d0: f9dd db2d 7681 2d2d 3cac 722d 4ed7 c92c
000001e0: 7ead 872d 71a1 812c 5913 862c 638d 6c2c
000001f0: ae32 822c fee0 ae2b 1c5c f32c c42c 852c
00000200: 2674 832c 7ec1 762c 2140 4b2c c8b7 8c2a
00000210: 3552 1c2e c12d 2c2e 685a 152e 4ba2 892c
00000220: bb59 a02d 295d 7b2c 3e57 0f2e 17cb f12d
00000230: 398d 032e 1659 b12b ed92 972d 3b34 462c
00000240: dcdf d42c c0c8 e92c 915c af2c 054a 762b
00000250: 83b5 452c ab21 fd2a 3a21 1f2d 7f6e 202d
00000260: 581a 272d 3901 3f2b 7fb9 862c b5f1 872b
00000270: bd86 d52b 3874 382b d9b4 6b2b b7b9 182b
00000280: fa4c 352b 06db 242a 101c 2f2c c670 852b
00000290: 42bf fd2b 2411 832b 6b1c 732b b19b 6129
000002a0: 55c5 562c 1811 f82b 8c58 142c 4dd6 d029
000002b0: 319f d12b b34d 6028 68ea 8b2d b990 252d
000002c0: aaae 302d 54ad ba2c 8350 952c 8165 1c2c
000002d0: a509 9a2d b188 d12c 6fe6 052d 064a c62c
000002e0: 83ae ed2c 15ae a92b efd2 3a2c 120e 262c
000002f0: b793 0f2c 1d4c 8e2b dfa4 8e2b 818f 662a
7.0399155e-12 1.879352e-12 1.9129646e-12 1.1764605e-12 1.9501668e-12 5.6111864e-13 1.2404016e-11 7.6030866e-12
6.0425076e-12 2.95197e-12 2.6570423e-12 1.2480124e-12 1.2060147e-12 8.917862e-13 9.979616e-13 7.154867e-14
8.534064e-13 1.636354e-14 4.842428e-12 1.3834e-12 1.9590829e-12 5.3457016e-13 1.0210947e-12 4.568318e-13
1.0786728e-11 1.1328908e-11 9.739987e-12 1.7921287e-12 4.225955e-12 1.7651875e-12 1.114453e-11 5.2957313e-12
4.5261893e-12 1.8629711e-12 3.4515548e-12 2.281642e-13 6.8227568e-12 8.983496e-12 6.394968e-12 2.7481723e-12
7.335469e-12 1.08797404e-13 5.163817e-12 2.5071475e-12 2.7775779e-12 3.6402752e-13 2.7929482e-12 8.648969e-14
9.46473e-12 8.3056236e-12 6.4391483e-12 3.5723588e-12 4.0487895e-12 8.187818e-13 5.0325733e-11 3.5422613e-11
2.977543e-11 1.1384335e-11 1.8266761e-11 6.9048395e-12 2.6868408e-12 3.7272438e-12 5.4165227e-12 3.6657464e-13
1.4084516e-12 2.3194088e-14 2.5285342e-12 3.5127803e-12 3.8005675e-12 1.4561757e-13 9.190125e-13 2.0471789e-13
3.007907e-12 1.7242196e-12 2.4999829e-12 4.0276612e-13 1.1066524e-12 2.5024297e-13 2.5013745e-11 8.9765625e-12
9.335958e-12 3.9662336e-12 4.727542e-12 2.2925952e-12 3.8409862e-11 4.8165527e-11 4.8845296e-11 1.3144927e-12
2.2267238e-11 3.7544594e-12 7.944514e-12 1.3575403e-11 1.09581675e-11 1.1895472e-12 3.4426934e-12 1.4306977e-12
5.231736e-12 2.9344014e-12 3.7836652e-12 1.180653e-12 2.4278554e-12 9.309405e-13 8.774721e-12 8.809527e-12
7.294607e-12 3.2232181e-12 6.00617e-12 3.100344e-13 1.1286386e-12 8.470051e-13 1.1473238e-12 4.970868e-14
4.3172754e-13 7.392211e-15 4.5012154e-11 2.8721808e-11 2.4995993e-11 9.8626576e-12 1.3794351e-11 5.7366672e-12
1.5424769e-11 3.684324e-12 3.810657e-12 3.3616103e-12 3.700449e-12 1.2425891e-12 6.9167016e-12 3.7850573e-12
3.736139e-12 3.5066112e-12 2.8883634e-12 2.499652e-13 3.5543308e-11 3.914891e-11 3.3958975e-11 3.9117923e-12
1.8229742e-11 3.572096e-12 3.2591922e-11 2.7488718e-11 2.9911382e-11 1.2601333e-12 1.723196e-11 2.8166486e-12
6.0502558e-12 6.644546e-12 4.984076e-12 8.749948e-13 2.8096143e-12 4.496519e-13 9.045481e-12 9.119482e-12
9.4987004e-12 6.785853e-13 3.8291033e-12 9.659414e-13 1.5171958e-12 6.553122e-13 8.373975e-13 5.425898e-13
6.4410944e-13 1.4642115e-13 2.4884574e-12 9.481519e-13 1.8029816e-12 9.312867e-13 8.637038e-13 5.0095077e-14
3.052077e-12 1.7626204e-12 2.1081218e-12 9.274231e-14 1.4894528e-12 1.2451346e-14 1.5906568e-11 9.411299e-12
1.0043225e-11 5.3056812e-12 4.2437733e-12 2.222528e-12 1.7512056e-11 5.955313e-12 7.611341e-12 5.6357167e-12
6.75532e-12 1.205649e-12 2.6549281e-12 2.359783e-12 2.040352e-12 1.0110833e-12 1.0135468e-12 2.0477892e-13

exp_avg f4 [32]
00000000: 639e 4a35 849f 0635 3d09 1f34 512b 3cb5
00000010: d9b4 e833 669a 23b4 7763 19b5 5e55 b0b4
00000020: b9e6 ed34 f363 69b5 8ced 0434 dd95 a834
00000030: 8891 15b4 5a65 8535 ca2a 0bb5 b6c3 f2b4
00000040: 21c4 9234 b0b0 9db5 5595 dd33 f9bb cab4
00000050: bb1e afb5 a60f 1eb4 8eff 8535 2fa5 bdb4
00000060: 9486 98b4 913c 7eb4 aa0f fab3 f643 7bb3
00000070: bf3c 0834 d75b 47b4 4de7 6235 169a 3bb3
7.5481347e-07 5.0151016e-07 1.481139e-07 -7.009849e-07 1.0836238e-07 -1.5236728e-07 -5.714168e-07 -3.2844667e-07
4.4312563e-07 -8.694471e-07 1.2379877e-07 3.1401478e-07 -1.392965e-07 9.938769e-07 -5.18438e-07 -4.521841e-07
2.7337322e-07 -1.1748834e-06 1.0318278e-07 -3.77622e-07 -1.304746e-06 -1.472059e-07 9.983648e-07 -3.532418e-07
-2.8410125e-07 -2.3677627e-07 -1.16443815e-07 -5.85023e-08 1.2688086e-07 -1.856673e-07 8.452815e-07 -4.367947e-08

exp_avg_sq f4 [32]
00000000: 1e75 3b2b d019 cf2b 12d1 932a 571d 232b
00000010: 7f40 0f2c 1d31 9c2b 0624 f92b f10b 662b
00000020: d4de ef2b 5cd9 012d 29f3 3d2b be46 db2a
00000030: 3a83 202b a91d 412c 7652 222d 7190 f82b
00000040: 305f 872b 86b8 3b2c c7ac 362a d1c9 d62c
00000050: f4c7 b92b 6826 982b d388 152d 56a6 f82c
00000060: effb ce2b 20d5 c02b a98f 672a a235 bb2a
00000070: 1e97 0e2b 8d3d 252c 34c7 172c 8495 212b
6.659828e-13 1.4715399e-12 2.6257517e-13 5.794995e-13 2.0357325e-12 1.1098098e-12 1.7702513e-12 8.1728987e-13
1.7043819e-12 7.3810645e-12 6.748374e-13 3.8951302e-13 5.702553e-13 2.7443414e-12 9.226944e-12 1.766155e-12
9.618747e-13 2.667673e-12 1.6224791e-13 6.104652e-12 1.3200539e-12 1.081091e-12 8.5000505e-12 7.067051e-12
1.4707106e-12 1.3701575e-12 2.0566764e-13 3.3255088e-13 5.065825e-13 2.3482078e-12 2.156897e-12 5.7406185e-13

exp_avg f4 [32, 32]
00000000: 4efa 82b4 2a4f 48b4 e992 38b1 d8ed 9c35
00000010: ec0c d8b4 d57d dd35 55b8 6ab5 97ef b035
00000020: 1165 2436 c224 7536 4bec ca34 c21d 67b4
00000030: 485d 9e35 82ee 2135 91e6 05b6 e977 abb5
00000040: e5c1 20b4 ff1e 3ab5 46c2 d335 b169 1236
00000050: 41b7 b635 d070 2636 34f6 3536 5774 2736
00000060: 8855 0f36 7304 7236 24a7 f735 abe9 4035
00000070: 8074 9d35 b426 6036 f581 43b3 b96e dc34
00000080: 5a14 47b5 bf1b 7db5 4309 60b4 bc4d 7935
00000090: 8847 a6b4 9dbb de35 a3d6 51b4 104e 0035
000000a0: e634 8235 e94e 2c36 a4c4 0435 68c5 9db5
000000b0: 7902 a635 2ebf 1e33 a464 dab5 8fc9 bab5
000000c0: 8697 07b5 2065 2132 ec00 4335 8785 f635
000000d0: e122 8035 d3f7 6a35 2380 9d35 9db3 0436
000000e0: 45db 8535 5b3a 2f36 1e30 c135 812c 4c33
000000f0: 2f2a 3035 2b36 2e36 6b5c c534 076f c7b4
00000100: 91b5 7d34 ad89 9634 b8ec 1734 d038 b3b4
00000110: 1343 d934 b160 a1b4 ab59 e734 ab01 d7b4
00000120: 61fe 3ab5 e4d6 87b5 1a96 ca33 8cb8 0c34
00000130: 6bfd 21b4 eac5 1933 aba2 8035 eae5 2535
00000140: 1ac1 6634 0a91 d534 ad67 9ab4 1bcb d9b4
00000150: ab35 c7b4 b9ae 60b5 3eb6 80b5 b1a8 01b5
00000160: 60b4 f8b4 b0a1 82b5 9768 8db4 1bd7 a8b4
00000170: 8ba6 5bb4 9fe7 87b5 b76d fd34 fed8 c033
00000180: d63c a9b4 3a7f 9eb4 d218 b7b4 b0b0 90b3
00000190: 8a34 83b4 0cd6 61b4 f3e0 fcb3 1ae3 20b4
000001a0: 1bdb aeb4 3408 72b4 aeea 97b4 cc19 8db4
000001b0: 63b6 ffb3 04dc bbb4 e8d1 4eb4 fe2e 24b4
000001c0: f2ab 8fb4 44b4 4eb3 5b96 b5b4 1296 8ab4
000001d0: 9e3f b6b3 4d73 86b4 7325 9db4 682f 88b4
000001e0: c7a5 c7b4 90cb 82b4 a6d0 b0b4 5eb0 53b4
000001f0: c8e7 9eb4 46c4 6cb4 8c58 a3b4 545c 75b4
00000200: d05d 5535 d1da 5535 9ad7 e434 d000 7eb5
00000210: fc7c 2035 a11a c7b5 0dbf 7135 a6ee 4eb5
00000220: 0ba5 dfb5 bd6f 4cb6 3630 27b4 3593 7335
00000230: e76f 8ab5 06d0 26b2 76cc 0d36 1b7c d135
00000240: 14a3 1335 1384 2535 eb3f 88b5 b79b fab5
00000250: 3aba 8cb5 c7ff d6b5 b841 fbb5 55e7 0ab6
00000260: c803 b7b5 8ec5 49b6 26fb bfb5 239f 3cb4
00000270: 2334 46b5 b973 41b6 57d0 1f34 1494 3a34
00000280: 9a62 4c33 3193 f833 436a c4b4 691c 96b5
00000290: 99a7 de33 68f6 e8b5 73ff 5635 256a a9b5
000002a0: 5526 2fb6 17f3 5fb6 edd1 2bb5 93e0 aa33
000002b0: 529e 90b5 0157 39b5 3ed8 f435 cef5 9f35
000002c0: d0c5 c0b3 3cc2 3d35 2c6f e5b5 c07e 0fb6
000002d0: e392 a8b5 39c8 1eb6 9156 44b6 ddcc 18b6
000002e0: 81e0 0ab6 7491 5fb6 46f4 efb5 628c 7eb5
000002f0: cf54 c1b5 ecb9 5eb6 c152 2932 706c 94b4
00000300: e8a0 9e35 54d4 9b35 a8df 3735 94f7 96b4
00000310: 6aba f4b3 128c 49b5 4916 2d35 c10a a034
00000320: 66cb 64b4 a1d7 95b4 1d11 b933 0aea b235
00000330: 6447 f6b4 0f1a 8535 37c1 6935 ec70 5735
00000340: afe9 1435 9709 4434 a6b3 dc33 d3b0 15b5
00000350: c438 51b4 ec19 4a35 c4ca d1b3 0bf0 8ab4
00000360: e6f4 3d35 910f bbb4 c37a 2134 372a 0135
00000370: d1aa 85b4 a33e 48b5 ebf2 d134 f173 8535
00000380: 6ae3 ffb4 cb17 d5b4 fb22 97b3 3027 4e35
00000390: 8748 9133 484f ac35 425c 93b5 11df 4a35
000003a0: e415 0b36 c4b9 0e36 cb3a 8634 6254 cfb4
000003b0: 5fc2 3f35 a0b8 a3b2 212d c8b5 b516 81b5
000003c0: 2ff6 91b3 4957 53b5 4b65 9d35 3630 c835
000003d0: d991 6135 f141 b235 c8f1 1036 426a ba35
000003e0: b3bf 8835 41b6 0e36 cdaa 7535 5465 ff34
000003f0: 7891 9735 6d5a 1b36 7848 d8b4 4144 2fb4
-2.4396508e-07 -1.8655251e-07 -2.6859033e-09 1.1692127e-06 -4.0242537e-07 1.6502405e-06 -8.744003e-07 1.3182752e-06
2.4496733e-06 3.652924e-06 3.7797358e-07 -2.1524377e-07 1.1799066e-06 6.032425e-07 -1.9952752e-06 -1.2775391e-06
-1.49717e-07 -6.9335505e-07 1.5777266e-06 2.1817216e-06 1.3613391e-06 2.4801593e-06 2.711441e-06 2.4952658e-06
2.1358446e-06 3.60634e-06 1.8451578e-06 7.1865605e-07 1.1731317e-06 3.340113e-06 -4.552017e-08 4.1058755e-07
-7.416289e-07 -9.429022e-07 -2.0864995e-07 9.2872847e-07 -3.0971955e-07 1.6594892e-06 -1.9542726e-07 4.779731e-07
9.70115e-07 2.567593e-06 4.945998e-07 -1.1754864e-06 1.2368683e-06 3.696112e-08 -1.6271556e-06 -1.3916741e-06
-5.0511915e-07 9.394427e-09 7.26445e-07 1.836729e-06 9.546894e-07 8.7532425e-07 1.1734704e-06 1.9774081e-06
9.973088e-07 2.6111e-06 1.4393624e-06 4.7537927e-08 6.5626494e-07 2.595955e-06 3.6761352e-07 -3.7147421e-07
2.3628515e-07 2.803985e-07 1.4149089e-07 -3.3382685e-07 4.0468203e-07 -3.005894e-07 4.3092345e-07 -4.0048084e-07
-6.966057e-07 -1.0120825e-06 9.433661e-08 1.3105654e-07 -1.5086486e-07 3.580309e-08 9.584086e-07 6.180186e-07
2.1490669e-07 3.9779871e-07 -2.876017e-07 -4.0567178e-07 -3.7105687e-07 -8.370076e-07 -9.589783e-07 -4.8301723e-07
-4.632484e-07 -9.732812e-07 -2.6339396e-07 -3.1448948e-07 -2.0456552e-07 -1.0125694e-06 4.720475e-07 8.9801674e-08
-3.1522967e-07 -2.9522363e-07 -3.4104465e-07 -6.737662e-08 -2.443888e-07 -2.1032628e-07 -1.17755825e-07 -1.498378e-07
-3.2569446e-07 -2.254099e-07 -2.8296694e-07 -2.6282066e-07 -1.1907539e-07 -3.4991547e-07 -1.9261608e-07 -1.5290786e-07
-2.6760932e-07 -4.8127063e-08 -3.3823275e-07 -2.5813694e-07 -8.486607e-08 -2.5043337e-07 -2.9270777e-07 -2.5366467e-07
-3.7187257e-07 -2.4362498e-07 -3.2934366e-07 -1.9715068e-07 -2.9598436e-07 -2.2050617e-07 -3.0425542e-07 -2.2850992e-07
7.94852e-07 7.9667103e-07 4.262518e-07 -9.4623556e-07 5.978652e-07 -1.4834405e-06 9.005751e-07 -7.708826e-07
-1.6662829e-06 -3.046341e-06 -1.5570626e-07 9.073877e-07 -1.0314369e-06 -9.709771e-09 2.112965e-06 1.5607833e-06
5.499908e-07 6.1659483e-07 -1.0151392e-06 -1.867177e-06 -1.0485012e-06 -1.6018683e-06 -1.8720084e-06 -2.0698255e-06
-1.3635663e-06 -3.0066326e-06 -1.4303703e-06 -1.7566758e-07 -7.3836617e-07 -2.88266e-06 1.4883823e-07 1.737647e-07
4.758713e-08 1.1575174e-07 -3.658516e-07 -1.1184139e-06 1.03681664e-07 -1.7357061e-06 8.009294e-07 -1.2622373e-06
-2.6099344e-06 -3.3371086e-06 -6.4007946e-07 7.957092e-08 -1.0774913e-06 -6.904448e-07 1.8242351e-06 1.1917962e-06
-8.9766786e-08 7.0690635e-07 -1.7094185e-06 -2.1382439e-06 -1.2559725e-06 -2.366038e-06 -2.9256664e-06 -2.2769011e-06
-2.069428e-06 -3.3314254e-06 -1.787798e-06 -9.482666e-07 -1.4404303e-06 -3.3188799e-06 9.855911e-09 -2.7646047e-07
1.1818747e-06 1.1610196e-06 6.8498275e-07 -2.8119814e-07 -1.1396044e-07 -7.5082164e-07 6.447995e-07 2.9810147e-07
-2.130815e-07 -2.7910303e-07 8.617847e-08 1.3330148e-06 -4.5873014e-07 9.916856e-07 8.708043e-07 8.0258064e-07
5.547435e-07 1.8257411e-07 1.0277226e-07 -5.576414e-07 -1.9485293e-07 7.5288585e-07 -9.769204e-08 -2.5879157e-07
7.076436e-07 -3.484279e-07 1.5038954e-07 4.8117676e-07 -2.4897466e-07 -7.4596954e-07 3.910603e-07 9.943016e-07
-4.7662917e-07 -3.9691653e-07 -7.037848e-08 7.6798005e-07 6.765281e-08 1.2838073e-06 -1.0979204e-06 7.557547e-07
2.0725356e-06 2.1267779e-06 2.5002223e-07 -3.861815e-07 7.143589e-07 -1.9059655e-08 -1.4914295e-06 -9.617858e-07
-6.796869e-08 -7.873064e-07 1.1726892e-06 1.4915192e-06 8.403127e-07 1.3281225e-06 2.1598407e-06 1.3889005e-06
1.0188581e-06 2.1265735e-06 9.151816e-07 4.7571177e-07 1.1292714e-06 2.3149435e-06 -4.0285863e-07 -1.6322976e-07

exp_avg_sq f4 [32, 32]
00000000: fdf2 832d b010 3a2d 79cc 952d 1e91 792b
00000010: 3650 012d 1ea9 c92c d27d a92c 1465 402c
00000020: d795 332d b5ae 1d2d 66cc 522d bc94 082d
00000030: 803a 582c 0b83 8d2d f825 1f2d 3948 8a2c
00000040: 392d 252d 7485 e22b 717d 442d d9ec fb2c
00000050: 55a8 a22b 0507 f72c add3 412d f9e4 122d
00000060: 121f 682d a88a 3a2d 601b 382d 274f b42c
00000070: 8ce1 252d 32aa 0f2d fbdb 602d 972c f92c
00000080: b47f f82d fef1 a42d 5f07 002e e267 b02b
00000090: 9aa1 2d2d fa01 1a2d 2c90 d02c 7849 8e2c
000000a0: 3151 712d 3c47 642d e8ef c42d c247 3f2d
000000b0: 5cf8 e92c 13c6 052e 6dcb 0c2d 2e48 902c
000000c0: 5e4a 8f2d 6bd7 ed2b ed83 aa2d 2eb3 4d2d
000000d0: 3959 c62b 2120 412d 6df6 a22d 6b73 8c2d
000000e0: bbe2 c32d 2fc0 9a2d 9a5f 922d a36a ec2c
000000f0: 5f0f 882d 9866 342d 21b2 d62d 91ab 612d
00000100: 53cd a22c 3a2d 562c 7f2e b72c 69e5 7c2a
00000110: e3b2 122c 7d7c e82b 1452 a72b b14d 5e2b
00000120: a6c3 582c 3b91 0a2c 5862 8a2c 9cc0 072c
00000130: 0e97 892b a4af b22c 23b2 f52b d1ee 582b
00000140: d6b0 472c 1ccf dd2a 6c31 762c 52ea 0b2c
00000150: 1046 952a 837c 142c c44c 8b2c 900a 272c
00000160: 0adf 8a2c f14f 432c 4c5e 4f2c 8390 d22b
00000170: 94f5 532c 0efa 0c2c 5ef9 8f2c c301 0e2c
00000180: b2bd 942b 6eb9 412b 5698 8f2b 902d e228
00000190: 33e6 ab2a 4dd4 852a 4762 672a 749d 192a
000001a0: 10c9 f72a fcc2 bf2a 36b2 5d2b 83af d42a
000001b0: f6da 532a 111b a32b bf7c 7f2a c469 ef29
000001c0: 1c59 222b 55a6 7a29 0f6c 422b 93d9 bf2a
000001d0: 6e35 0e29 813e ed2a 1f7c 232b 157d 0d2b
000001e0: 81ed 6a2b 133d 0d2b 30c8 272b fd8f 6d2a
000001f0: 1c58 0e2b 4abc 5d2a 8257 832b a96f 072b
00000200: 0e48 852d 24af 3b2d ba3c 922d 20c8 5e2b
00000210: 5ef4 ef2c b300 bc2c 927e 9a2c 2663 2d2c
00000220: 94c6 212d 9c0b 142d da03 4f2d 1940 072d
00000230: 6d9f 632c 7d90 8d2d 9a89 092d 2c06 862c
00000240: 2dfd 222d 871a c02b 4607 3e2d 5fd7 f12c
00000250: 0282 872b d014 de2c 18d4 382d c788 132d
00000260: a1dc 622d 3124 352d 8d00 2d2d b096 a92c
00000270: 0e2e 1f2d 86f2 052d 418b 5a2d db7a f12c
00000280: 8d90 472d 1330 0b2d d75b 5f2d af23 7c2b
00000290: 3321 c72c 1258 c42c db22 6c2c 93c6 382c
000002a0: 7b60 3a2d c282 1e2d c81d 252d 3a85 cd2c
000002b0: 1be7 582c 7464 662d ad51 c62c d7e9 3f2c
000002c0: eb57 fb2c 6f94 a52b d52f 312d 288b f42c
000002d0: f793 9a2b 9be7 f62c 72b8 532d 29bd 0a2d
000002e0: 02b7 622d 8d51 3e2d 6510 232d 1b80 9a2c
000002f0: 2fbb 142d d8c6 242d 0e2a 2c2d 665c a82c
00000300: 092d 8f2d a250 3f2d e51d 882d 1326 dc2a
00000310: ed34 8e2c aa02 5a2c 35d1 712c 0637 082c
00000320: 6e5f bf2c 7f43 8e2c 8d4f 472d 0173 eb2c
00000330: 88e8 2e2c 6461 922d 20d7 962c 0409 0e2c
00000340: 8b91 182d d193 7d2b 8925 242d 4304 962c
00000350: 3c8c fa2a 983d d62c 8d26 0e2d 2034 da2c
00000360: 39c6 392d 0dbc dd2c ca6d f72c 268e 652c
00000370: ef14 ee2c 7c0e 352c 8252 5d2d 4705 102d
00000380: 28df fc2c 879a ad2c 790b f82c 364f cd2a
00000390: 1488 342c 34aa 252c 5616 3c2c 12ba a82b
000003a0: 2e91 a32c 5908 832c 93b8 b32c 7b9c 702c
000003b0: 0169 cc2b 3234 082d 16a9 852c f5e1 f12b
000003c0: 2d02 8b2c dc41 892b 9c01 ab2c ed08 562c
000003d0: 6fcc fd2a 561c 5f2c 59e0 bc2c ebee 822c
000003e0: 0932 d62c e679 a32c 1518 9e2c 27f0 0a2c
000003f0: eab2 872c a6f6 802c 72f3 dd2c 9fb9 772c
1.5000884e-11 1.0576581e-11 1.7030143e-11 8.866396e-13 7.3506114e-12 5.7315394e-12 4.8172378e-12 2.734095e-12
1.0208243e-11 8.9632095e-12 1.19825035e-11 7.763731e-12 3.072792e-12 1.6088039e-11 9.046534e-12 3.9302142e-12
9.3892056e-12 1.6095307e-12 1.1169164e-11 7.1601444e-12 1.1557514e-12 7.0209416e-12 1.1017781e-11 8.349981e-12
1.3194572e-11 1.0603664e-11 1.04652675e-11 5.1246954e-12 9.429246e-12 8.1664e-12 1.2781771e-11 7.081956e-12
2.8251047e-11 1.8752108e-11 2.9110377e-11 1.2534385e-12 9.869794e-12 8.754325e-12 5.927722e-12 4.0440394e-12
1.3717292e-11 1.2976117e-11 2.238916e-11 1.08730264e-11 6.6498317e-12 3.0416624e-11 8.003248e-12 4.1007397e-12
1.6290243e-11 1.6899653e-12 1.938535e-11 1.1692687e-11 1.409351e-12 1.0977914e-11 1.8526703e-11 1.5967413e-11
2.2269622e-11 1.759312e-11 1.6640734e-11 6.7193625e-12 1.5468236e-11 1.0254596e-11 2.4408088e-11 1.2827865e-11
4.6271125e-12 3.0436335e-12 5.206335e-12 2.2461689e-13 2.084715e-12 1.6519144e-12 1.1888845e-12 7.897806e-13
3.0804053e-12 1.9691599e-12 3.9331143e-12 1.9291574e-12 9.776362e-13 5.0785643e-12 1.745774e-12 7.707004e-13
2.8377765e-12 3.9401197e-13 3.4986137e-12 1.9883162e-12 2.6516333e-13 2.1101183e-12 3.9591403e-12 2.373799e-12
3.946958e-12 2.7755543e-12 2.9468815e-12 1.4961508e-12 3.0121227e-12 2.0034005e-12 4.0919898e-12 2.0180392e-12
1.0568684e-12 6.882471e-13 1.0203043e-12 2.51108e-14 3.0535435e-13 2.377286e-13 2.0551018e-13 1.3643757e-13
4.401553e-13 3.4063713e-13 7.876229e-13 3.778055e-13 1.8816532e-13 1.1589359e-12 2.269183e-13 1.06320795e-13
5.7677626e-13 5.565542e-14 6.9072607e-13 3.4079388e-13 3.1576677e-14 4.2143028e-13 5.8081486e-13 5.026685e-13
8.3463103e-13 5.017802e-13 5.9608134e-13 2.1099785e-13 5.057081e-13 1.9694069e-13 9.332398e-13 4.8116594e-13
1.5152348e-11 1.0668608e-11 1.6625246e-11 7.9147973e-13 6.8199188e-12 5.343359e-12 4.3909954e-12 2.4639817e-12
9.195884e-12 8.415404e-12 1.1767443e-11 7.688094e-12 3.234714e-12 1.609401e-11 7.818102e-12 3.8091943e-12
9.26485e-12 1.3649783e-12 1.0801865e-11 6.873543e-12 9.628411e-13 6.31193e-12 1.0506283e-11 8.386353e-12
1.2895602e-11 1.0296695e-11 9.834034e-12 4.8199986e-12 9.04833e-12 7.614026e-12 1.2422786e-11 6.8632717e-12
1.1343937e-11 7.91191e-12 1.2696475e-11 8.9577906e-13 5.659606e-12 5.580433e-12 3.3556966e-12 2.6258204e-12
1.0594299e-11 9.010294e-12 9.385777e-12 5.8412416e-12 3.0823735e-12 1.3096291e-11 5.6365663e-12 2.727254e-12
7.14361e-12 1.1765154e-12 1.0071906e-11 6.9503465e-12 1.0983427e-12 7.017454e-12 1.20349165e-11 7.886394e-12
1.28872486e-11 1.08183575e-11 9.269118e-12 4.391166e-12 8.454389e-12 9.366473e-12 9.786406e-12 4.7851055e-12
1.6277217e-11 1.0874997e-11 1.5474686e-11 3.910627e-13 4.0417587e-12 3.0981142e-12 3.4364293e-12 1.9357307e-12
5.4391413e-12 4.0433763e-12 1.1329504e-11 6.6918697e-12 2.4855968e-12 1.6641528e-11 4.28714e-12 2.0184418e-12
8.672517e-12 9.008879e-13 9.330655e-12 4.2637296e-12 4.4506228e-13 6.089084e-12 8.0803255e-12 6.2017197e-12
1.0560047e-11 6.3020756e-12 7.0323513e-12 3.2621766e-12 6.766691e-12 2.5729687e-12 1.2580716e-11 8.186624e-12
7.187046e-12 4.9341117e-12 7.0498577e-12 3.647028e-13 2.5655077e-12 2.3542392e-12 2.6728806e-12 1.1988763e-12
4.648857e-12 3.7241707e-12 5.107978e-12 3.4192915e-12 1.4524216e-12 7.742295e-12 3.7988597e-12 1.7186796e-12
3.950859e-12 9.752715e-13 4.860291e-12 3.0416184e-12 4.5083682e-13 3.1705936e-12 5.368189e-12 3.7213474e-12
6.087801e-12 4.646272e-12 4.4933037e-12 1.974429e-12 3.8567942e-12 3.6653623e-12 6.3082256e-12 3.5203852e-12

exp_avg f4 [32]
00000000: 5256 0036 f16b 8135 beb7 6eb4 3655 f8b4
00000010: 1e00 8db5 db75 feb5 b07f 2c35 cfd1 7235
00000020: 7a63 b7b3 34cf 83b5 faf8 2cb5 8a9c 61b5
00000030: 1ee6 c9b4 b31b 4b35 7c66 ec34 d7f2 b733
00000040: 944d 04b6 9932 89b4 88b9 0034 9555 80b4
00000050: e01c fb34 0215 59b3 37e1 5ab5 8ca8 2235
00000060: 1b86 acb4 e9ce dd34 da02 6735 7651 c434
00000070: 3bf2 43b5 0ce8 8e35 662b 49b1 fa6e bdb4
1.9123731e-06 9.642664e-07 -2.2232322e-07 -4.62556e-07 -1.0505353e-06 -1.8958775e-06 6.4260803e-07 9.0457337e-07
-8.539696e-08 -9.820565e-07 -6.44373e-07 -8.4046826e-07 -3.76066e-07 7.56637e-07 4.4032993e-07 8.565774e-08
-1.971469e-06 -2.5555053e-07 1.1988425e-07 -2.3904127e-07 4.6773403e-07 -5.0543356e-08 -8.153906e-07 6.059497e-07
-3.213507e-07 4.1315005e-07 8.6058355e-07 3.6567116e-07 -7.299565e-07 1.0647359e-06 -2.9274019e-09 -3.528474e-07

exp_avg_sq f4 [32]
00000000: 3284 de2d d002 4a2e d2a1 0a2d fa75 e72b
00000010: 72bd d92d 8d1c be2d d51b c72d 5713 492d
00000020: 87c1 162c 7f96 942d 3b3a 1a2d d440 262d
00000030: fcdb 1c2e 58dd 9f2d bbb1 c52d 91df cb2c
00000040: a88a 842e dbf7 a02d 9a49 362d 8404 d62e
00000050: 9f7a 882e 7abe 202e 593e 922d 9667 0f2d
00000060: 4174 3b2d b79b b42e 9e53 7d2d cf2b 692d
00000070: ec57 292e 1e44 5c2d a4c5 9a2e b248 792e
2.5297184e-11 4.593198e-11 7.880323e-12 1.6446282e-12 2.4754174e-11 2.1613178e-11 2.263604e-11 1.14298215e-11
2.1423711e-12 1.6892486e-11 8.766816e-12 9.450402e-12 3.566568e-11 1.8174504e-11 2.2475235e-11 5.794428e-12
6.027295e-11 1.8299964e-11 1.0361845e-11 9.7323954e-11 6.206346e-11 3.6548965e-11 1.6625966e-11 8.15161e-12
1.0655533e-11 8.213113e-11 1.4399952e-11 1.3254244e-11 3.850424e-11 1.2520677e-11 7.038217e-11 5.668061e-11

exp_avg f4 [6, 32]
00000000: 0900 bd35 b1d3 0fb6 465b 9436 2888 0c36
00000010: 8354 c236 3914 f135 a187 f135 205d 5c34
00000020: 08fc 2836 fcb3 7f35 32f9 1c36 1e64 6536
00000030: 0a73 7335 db5e 0fb5 d59a 09b5 b66c 9435
00000040: 9c14 9d36 f605 6236 2105 5136 2230 af36
00000050: ae4b 20b5 db65 5235 fb25 1935 f138 40b2
00000060: c1e5 1136 0bc4 3234 7ecb ceb4 9b63 fb34
00000070: 5abe 2c35 bdc8 aa34 39f5 1036 9acb 5d35
00000080: 3a89 6e36 8cb9 07b7 463b 8337 cf93 0937
00000090: d7ae a437 5d34 7237 7149 4a35 1882 d1b5
000000a0: 0bc3 1037 5597 cc36 ef3a 5137 eaf5 0b37
000000b0: d6ea 79b5 635c 0cb6 8cba 71b6 a954 1237
000000c0: 62af 1437 6eac 8d37 b8c2 8936 077e 5537
000000d0: 1266 19b7 f6bb 88b6 7ecf 2e37 3242 0eb6
000000e0: bf16 8137 bddb 79b5 0c8d ccb6 808b 16b6
000000f0: 56c2 2a37 2509 2ab5 49a8 df36 0831 8436
00000100: 1cf2 91b6 bb3d 1336 fa89 85b7 4bca 39b7
00000110: 5a9a 92b7 5eb2 88b7 d617 deb5 dd00 a7b6
00000120: 6d9b 36b7 08a1 0cb7 4ac7 75b7 9963 35b7
00000130: 1411 6eb6 1ce4 38b5 7982 16b6 ca89 28b7
00000140: e906 2fb7 caa3 74b7 cd3d abb6 dab9 4fb7
00000150: d5b3 7b36 f438 07b6 7cfc 4cb7 372e a9b5
00000160: f586 78b7 cfee a1b6 87af 40b5 01e6 2fb6
00000170: 74cd 4fb7 5cf7 66b6 8df0 00b7 b9f8 b8b6
00000180: 5c3b 85b6 8486 aeb6 4b5c b134 ecb3 54b6
00000190: bdb6 1336 d8f1 e335 b05d 4fb6 841f 9cb6
000001a0: 17dc 4ab6 a913 95b5 50a5 a2b3 2da7 65b6
000001b0: d5a5 94b6 d082 75b6 89ea 89b6 cc6b 30b6
000001c0: a2c0 c9b5 91da 9335 c156 12b6 dad0 e934
000001d0: dfd6 e4b6 5b19 92b6 ee10 a5b4 fc61 43b6
000001e0: ca76 0036 7ab4 95b6 e35d c0b6 7f97 9fb6
000001f0: 775f 5535 24f7 7ab6 e9da 9bb4 2a3d fcb5
00000200: 55a0 8c36 21b1 4a36 e4b9 2936 ac1f 8936
00000210: 758a ee35 97fb 3136 a3f3 f135 f14a 7b36
00000220: 4cd0 8c36 9adc 1136 c7fd 5136 4886 8236
00000230: 4e5c 5636 dae6 2236 ec9f 3e36 1ba7 9236
00000240: f443 ef35 1161 3536 a99d b835 794e 7335
00000250: 79dc 5236 720d 0a36 134c 5736 8c0e 0636
00000260: ad86 1c36 f8bc 4536 8155 4836 3121 4b36
00000270: d59b 0f36 9203 4836 1951 bc35 285a 1b36
00000280: a045 7e35 edb4 fd35 ec04 c3b5 37b0 67b3
00000290: 651d 0ab6 c162 17b6 0057 8b35 c5be a935
000002a0: f24a c732 c262 15b5 0597 c0b5 68a0 9d34
000002b0: 8878 b835 f49f 8235 c7f9 aa35 bfe4 c1b4
000002c0: 73ab 0832 8352 00b6 73aa 2735 f599 6bb5
000002d0: 1491 3c36 0898 d935 e83c c7b5 c992 7f35
000002e0: 5e02 16b6 e5af 8335 92f5 0136 4588 bc35
000002f0: fefe e1b5 32e9 7b35 7967 00b5 2590 0033
1.4081608e-06 -2.143188e-06 4.4213693e-06 2.094088e-06 5.791489e-06 1.7961785e-06 1.7995372e-06 2.0522975e-07
2.5180652e-06 9.5256814e-07 2.3390862e-06 3.4181935e-06 9.069196e-07 -5.3409684e-07 -5.126179e-07 1.1058498e-06
4.681364e-06 3.3680094e-06 3.1146412e-06 5.22101e-06 -5.9714773e-07 7.8379315e-07 5.705221e-07 -1.1188818e-08
2.1740418e-06 1.6648862e-07 -3.851855e-07 4.6824866e-07 6.435199e-07 3.1811024e-07 2.160041e-06 8.2625195e-07
3.554464e-06 -8.089828e-06 1.5644018e-05 8.200251e-06 1.963174e-05 1.4436516e-05 7.5357735e-07 -1.5609576e-06
8.628481e-06 6.097291e-06 1.2471092e-05 8.342302e-06 -9.310146e-07 -2.0915402e-06 -3.6020383e-06 8.72199e-06
8.862322e-06 1.6888804e-05 4.1055864e-06 1.2725132e-05 -9.143276e-06 -4.0749974e-06 1.0419519e-05 -2.119818e-06
1.538859e-05 -9.307949e-07 -6.096094e-06 -2.2432941e-06 1.0178037e-05 -6.334324e-07 6.665509e-06 3.9396145e-06
-4.349522e-06 2.1940639e-06 -1.5919086e-05 -1.1073959e-05 -1.7476432e-05 -1.6295522e-05 -1.6547226e-06 -4.9770883e-06
-1.0884233e-05 -8.382143e-06 -1.4649539e-05 -1.081163e-05 -3.5474704e-06 -6.8877284e-07 -2.2427687e-06 -1.0045662e-05
-1.0432422e-05 -1.4581668e-05 -5.1033917e-06 -1.2381433e-05 3.750659e-06 -2.0149719e-06 -1.2218134e-05 -1.2604931e-06
-1.4813374e-05 -4.825975e-06 -7.1781e-07 -2.6210912e-06 -1.2385997e-05 -3.4416653e-06 -7.685402e-06 -5.5125824e-06
-3.970619e-06 -5.201264e-06 3.303597e-07 -3.169519e-06 2.2011075e-06 1.6983204e-06 -3.0899937e-06 -4.652831e-06
-3.0228455e-06 -1.1107087e-06 -7.573783e-08 -3.4220968e-06 -4.430049e-06 -3.6583988e-06 -4.1102217e-06 -2.628879e-06
-1.503173e-06 1.1015965e-06 -2.1806193e-06 4.3551591e-07 -6.819944e-06 -4.354091e-06 -3.0745963e-07 -2.9114299e-06
1.914263e-06 -4.4615563e-06 -5.7329758e-06 -4.7562057e-06 7.9487603e-07 -3.7396758e-06 -2.9030278e-07 -1.8793264e-06
4.1909902e-06 3.0203448e-06 2.5291165e-06 4.0866053e-06 1.7772678e-06 2.65215e-06 1.8026807e-06 3.7445536e-06
4.196574e-06 2.173509e-06 3.1291145e-06 3.8899343e-06 3.1942213e-06 2.4274254e-06 2.8405293e-06 4.3705927e-06
1.7826665e-06 2.7027602e-06 1.3754953e-06 9.0638747e-07 3.142077e-06 2.0571429e-06 3.2081778e-06 1.9976023e-06
2.3324203e-06 2.9465282e-06 2.9852092e-06 3.0268677e-06 2.1399367e-06 2.98044e-06 1.4030694e-06 2.3149278e-06
9.472369e-07 1.8902625e-06 -1.4530065e-06 -5.3944145e-08 -2.0580712e-06 -2.2558236e-06 1.0381627e-06 1.2647002e-06
2.320073e-08 -5.5650537e-07 -1.4349067e-06 2.936024e-07 1.3744148e-06 9.732307e-07 1.2738682e-06 -3.6115486e-07
7.955225e-09 -1.9121514e-06 6.2460384e-07 -8.776836e-07 2.809863e-06 1.6212007e-06 -1.4844381e-06 9.5208503e-07
-2.235312e-06 9.811453e-07 1.9365439e-06 1.4046751e-06 -1.6838019e-06 9.384413e-07 -4.783429e-07 2.993342e-08

exp_avg_sq f4 [6, 32]
00000000: 64e8 9530 658a 5030 0221 8e30 24bf ac30
00000010: 3f66 8c30 5093 0030 f147 6130 126f af30
00000020: 256a c130 9dd4 c52f df10 b430 8d8a 0331
00000030: b325 8830 2d6d 4830 9911 7830 1457 7930
00000040: 3f73 9930 81ad 4230 23c2 4430 bb59 6b30
00000050: b5fb 0130 c299 1530 f7ef b730 0093 2f30
00000060: e782 9430 fe43 8930 8fb7 9b30 a1d5 a130
00000070: cb7b 5030 cb90 7430 0d9d 2f30 7f01 3d30
00000080: 1131 4f30 b655 e12f 8183 3530 b5e4 6530
00000090: 0eb1 3130 3d4f ce2f 4496 c02f b213 3e30
000000a0: fdae 8030 eb4f 7f2f 5f0f 3b30 c590 8d30
000000b0: aeb6 2330 978d c12f 811a eb2f ebf7 5430
000000c0: 8ec9 1230 e43a 1c30 34aa c32f ba89 e52f
000000d0: 6f23 d22f 57be 982f 1b2d 3230 0267 902f
000000e0: acfd 1230 032f 1730 f13a 1230 9a41 1930
000000f0: b7f8 c32f 1ba3 0230 3165 942f 5204 bc2f
00000100: 1035 0531 bd0d a330 173e f730 678b 1831
00000110: 78bf f030 9861 7a30 6cd5 ad30 5250 0e31
00000120: b1f6 2a31 295e 2e30 10e7 1431 7a19 5931
00000130: 5866 e430 cb05 9d30 1127 c130 a0c8 ef30
00000140: ef50 f430 a5b9 b430 5cd3 9d30 6af4 ba30
00000150: 38aa 6930 68d8 6a30 4577 1331 0477 8630
00000160: 795b ed30 e075 df30 1719 f130 ff40 fd30
00000170: f410 a730 bf36 c730 1170 8830 3948 9930
00000180: 9315 0b30 85df cc2f 37f1 fc2f eea4 2530
00000190: e3d9 f12f 0a0a 6a2f cb3b d12f b566 2030
000001a0: da3b 3830 5584 3b2f 37d9 2130 c230 7230
000001b0: 3c16 0630 0cce c12f 0f3d e82f d14f f02f
000001c0: 9510 0a30 df99 ac2f b487 b52f d98d c82f
000001d0: 2bc1 8d2f 1f0e 8c2f e421 2830 635a a52f
000001e0: 87d8 fe2f 2f04 0730 0bc1 1630 146d 1730
000001f0: cf6c b82f 3fb7 eb2f b6e3 9d2f cb12 af2f
00000200: 9b43 882f 0eb6 3c2f bae4 5b2f 0583 962f
00000210: b181 552f a6e9 d72e 81a4 362f 5784 922f
00000220: 5f36 a52f 02e8 9d2e 1c5d 922f 3c5f d92f
00000230: e20b 722f 7008 362f 3909 4b2f 22af 6e2f
00000240: 06f8 6f2f b8cf 242f e907 222f 8768 2a2f
00000250: 6a4f f12e 87f0 ed2e 11ba a02f 5675 102f
00000260: b752 6c2f 3cc8 722f 51d3 802f 0b77 872f
00000270: 219f 232f c50b 5b2f 654a 092f 5640 172f
00000280: 846d a02e bb79 0f2e 869a 822e 55b5 b42e
00000290: 4ec6 632e 602a 1a2e 30da 012e 9ea6 8b2e
000002a0: dffb c72e 9393 c62d 1014 822e 868a d02e
000002b0: 615a 792e 6cc5 042e 9684 1b2e 76e7 ac2e
000002c0: 4a3e 532e eafd 5a2e 0d08 0f2e 02f4 112e
000002d0: b1c8 212e 6099 e82d 4518 712e 6161 bc2d
000002e0: b11f 352e e8b6 672e 55ba 462e f18d 552e
000002f0: 1c4a fe2d d907 462e 9af5 bd2d dd9a 002e
1.0907226e-09 7.586663e-10 1.0341241e-09 1.2568973e-09 1.0215401e-09 4.677547e-10 8.195676e-10 1.2764494e-09
1.4072766e-09 3.5985162e-10 1.3101519e-09 1.9141766e-09 9.906017e-10 7.2914724e-10 9.024688e-10 9.070942e-10
1.116497e-09 7.082335e-10 7.158027e-10 8.5620017e-10 4.7287624e-10 5.4424387e-10 1.3383205e-09 6.387353e-10
1.0805622e-09 9.987386e-10 1.1329905e-09 1.1775009e-09 7.584588e-10 8.8972446e-10 6.388781e-10 6.8759926e-10
7.537589e-10 4.0988163e-10 6.6034295e-10 8.3634727e-10 6.4643835e-10 3.7527484e-10 3.5031367e-10 6.9149586e-10
9.36296e-10 2.3220507e-10 6.805205e-10 1.0300246e-09 5.955866e-10 3.52071e-10 4.2765083e-10 7.7477463e-10
5.3400917e-10 5.683616e-10 3.559123e-10 4.1752718e-10 3.8223955e-10 2.7783884e-10 6.482012e-10 2.626664e-10
5.347498e-10 5.500029e-10 5.319825e-10 5.57543e-10 3.5647016e-10 4.752551e-10 2.6992944e-10 3.420007e-10
1.938421e-09 1.1863716e-09 1.7989262e-09 2.2198152e-09 1.7516717e-09 9.108816e-10 1.2648065e-09 2.0709376e-09
2.4878484e-09 6.343464e-10 2.1668178e-09 3.1592138e-09 1.6618271e-09 1.14249e-09 1.4053702e-09 1.744656e-09
1.7776339e-09 1.3149487e-09 1.1483325e-09 1.3602748e-09 8.50068e-10 8.5436236e-10 2.1459112e-09 9.78361e-10
1.7270018e-09 1.6258888e-09 1.7542189e-09 1.8426646e-09 1.2155668e-09 1.4494715e-09 9.927154e-10 1.1152742e-09
5.0598564e-10 3.7266204e-10 4.6009926e-10 6.026103e-10 4.3992462e-10 2.1285743e-10 3.8059364e-10 5.8353616e-10
6.7023864e-10 1.7054565e-10 5.888014e-10 8.8108376e-10 4.8780513e-10 3.52529e-10 4.224394e-10 4.371246e-10
5.022767e-10 3.139595e-10 3.302013e-10 3.6480577e-10 2.5785005e-10 2.5475885e-10 6.1166205e-10 3.007755e-10
4.6356183e-10 4.911866e-10 5.484401e-10 5.508849e-10 3.3546718e-10 4.2876455e-10 2.8719932e-10 3.1845668e-10
2.4786292e-10 1.7163179e-10 1.9999194e-10 2.7377936e-10 1.9418313e-10 9.818572e-11 1.6611247e-10 2.6651278e-10
3.0051958e-10 7.180746e-11 2.6623403e-10 3.9539738e-10 2.2013993e-10 1.6555801e-10 1.8466019e-10 2.1708194e-10
2.1825039e-10 1.498951e-10 1.4736624e-10 1.5498546e-10 1.0973518e-10 1.08202385e-10 2.9236039e-10 1.313841e-10
2.1493461e-10 2.208091e-10 2.3433214e-10 2.4640942e-10 1.4881298e-10 1.9922115e-10 1.2486508e-10 1.3756227e-10
7.2954115e-11 3.2622554e-11 5.9391644e-11 8.2176634e-11 5.1789954e-11 3.5053183e-11 2.9524994e-11 6.350585e-11
9.0942136e-11 2.257553e-11 5.9152794e-11 9.4833516e-11 5.6696318e-11 3.018867e-11 3.536068e-11 7.86277e-11
4.803117e-11 4.9792982e-11 3.2521586e-11 3.3185905e-11 3.678541e-11 2.6443459e-11 5.481861e-11 2.141637e-11
4.1182783e-11 5.2685772e-11 4.5185484e-11 4.8556662e-11 2.8909368e-11 4.5026958e-11 2.1595881e-11 2.9241377e-11

exp_avg f4 [6]
00000000: 9787 6536 e07c 3537 b5d0 77b7 49ee 86b6
00000010: 9e97 af36 65e8 6733
3.4202583e-06 1.0817515e-05 -1.4770941e-05 -4.0212512e-06 5.233057e-06 5.399524e-08

exp_avg_sq f4 [6]
00000000: b985 6a31 49ec fc30 7467 c131 e257 d830
00000010: 99ff 4430 081c 392f
3.4127494e-09 1.840257e-09 5.6288005e-09 1.5741046e-09 7.166761e-10 1.683561e-10

0.weight f4 [32, 6]
00000000: 32a1 d53d a31e df3e e860 883e 7c12 39be
00000010: 4d15 883c 5d05 c8bc 37eb 483e 1fb4 143e
00000020: b117 9f3e 2da5 94bd 52b6 db3d d796 c0be
00000030: e654 78be 752a ac3e 18e6 ac3e 361e babe
00000040: 046f a1be 555e f83d ba4e f83d 26ca a4be
00000050: c879 48be 145d 753e 86c6 b3be 1c26 c73e
00000060: ea08 69be fbb2 073e aee9 37bd 339f 06be
00000070: 2b61 d5be 6ae6 09bf 6154 cabe 7b4f 37bd
00000080: 6994 acbe 061a 183c 6e87 a4be 8d8c 953d
00000090: 77e2 8a3e ff31 c93d 8d21 383e 4657 1ebf
000000a0: f3e5 25be 8e02 cc3e c8f5 5c3e 06ca 173d
000000b0: 3385 25be c5b3 de3e 6c29 bcbd 49eb 853e
000000c0: 8960 b8be 7483 27be 5f98 08bc cfa8 0a3f
000000d0: dc94 69be ec1d 52be 8502 19be b9e5 52be
000000e0: 3975 b6be 078d d83e 066e 823e 7949 ef3e
000000f0: d687 98be e35b c43d a318 ae3d 4fa0 b5be
00000100: 8a61 80be 0bc9 403d e201 ab3e 2ac2 973e
00000110: 609f 723e 8e18 163e dcb5 cbbc 532f bcbd
00000120: 8421 c8bd 89ac c3be f247 b3bd 2847 17be
00000130: 0920 07be 0dec 953c ddd2 f9bb 2df6 943e
00000140: 2b48 983e 4ef6 9ebe 90f7 623e d2f9 eb3d
00000150: 3ce0 943e d445 ec3e 3ce7 46bd 743b 91be
00000160: 3b0b 3ebe 9ffe 09bf 16c8 d43e c95e d13e
00000170: 5fa8 06be 28d2 943d 5f1b 3cbe 59bd e8be
00000180: 03ed 00bc 0b22 a83e 0103 99bc cdb4 bd3c
00000190: 80f0 61be 5433 34be 6812 ad3e 8902 db3d
000001a0: f23a 1dbe 10b0 efbe 9600 82be 908c 523e
000001b0: d2ea 8dbe 5b8c 8a3e 6715 8abe 832a a23e
000001c0: 5112 c3bd 73ad e9bd 3fea babe 2a78 c3bc
000001d0: 1734 c5be a499 0a3e acea 4abd 782f 88bb
000001e0: 664e 1e3e bfea 9cbe a312 4ebe 534d 963e
000001f0: 272a 43be ec3c a23e e97e 3d3e cf6d 1b3e
00000200: 6556 02be c046 1b3f b52c 163e 7f73 053f
00000210: c6c3 a0be 5b3b 64be 8d98 243e f8c8 fd3e
00000220: 232e a4be 559d bd3e de2e 85be 2131 d4be
00000230: 3fb1 363c 4644 f5bd ba0d 5f3e 2245 293d
00000240: aa03 e7bd b7bb 60be c1dd ba3e fbf1 91bd
00000250: f00b bd3e ec2d 263e 17fb 83be 8f35 f5be
00000260: 8ef4 35bd c933 253e b4be 783e b483 bc3e
00000270: ded4 93be dc71 a93d f1f7 30be c633 02be
00000280: 5da2 343e 1114 fb3d 01dc bd3d 6d9d 743c
00000290: 63e9 6c3e 3053 cc3d c55a a8be 9ea5 c93e
000002a0: acb1 c2be b029 453c 39d9 30bd 2a9d b23d
000002b0: 074e b1be 9364 1cbe 211e c2be 7b41 91be
000002c0: c096 71be 637f 923e 4fbd 44be 6542 0b3f
000002d0: 8f15 50be be14 cb3e 2091 64be 511e 01bf
000002e0: 4811 f13d 0925 43be d9bc 8f3e df37 fdbd
000002f0: 8394 9b3e eabe 8fbd 0cef 7f3e 82e6 6fbe
0.10431136 0.4357806 0.26636434 -0.18073457 0.01661172 -0.02441662 0.19620977 0.14521836
0.31072763 -0.07258067 0.10728134 -0.37615082 -0.24251136 0.33626142 0.33769298 -0.36351174
-0.3153001 0.121273674 0.12124391 -0.32185477 -0.19577706 0.23961288 -0.351124 0.38896263
-0.22757307 0.1325187 -0.04490059 -0.13146667 -0.41675696 -0.5386721 -0.395175 -0.044753533
-0.33706978 0.009283548 -0.32134575 0.073021986 0.27125904 0.09823989 0.17981549 -0.6185192
-0.16201 0.398457 0.21578133 0.0370579 -0.16164093 0.43496528 -0.09187588 0.2615607
-0.3601115 -0.16358739 -0.008337109 0.5416383 -0.22810692 -0.20519227 -0.14942367 -0.20595445
-0.3563631 0.42295095 0.25474566 0.46735743 -0.29791135 0.095878385 0.08500793 -0.35473868
-0.25074416 0.04706673 0.33399874 0.29640323 0.23693609 0.14657804 -0.02486699 -0.09188714
-0.097720176 -0.3821757 -0.08753957 -0.14773238 -0.13195814 0.018301034 -0.007624014 0.29094067
0.2974256 -0.3104729 0.2216475 0.11522259 0.29077327 0.46147025 -0.048560366 -0.28365672
-0.18558972 -0.53904146 0.41558903 0.40892628 -0.13150166 0.072666466 -0.18369816 -0.4545696
-0.007869008 0.32838473 -0.01867819 0.023157502 -0.220644 -0.17597705 0.33803105 0.10693843
-0.15354517 -0.46814013 -0.25391072 0.20561433 -0.27718216 0.27060208 -0.26969454 0.3167306
-0.09524978 -0.11410036 -0.3650684 -0.02386101 -0.38516304 0.13535172 -0.049540207 -0.0041560493
0.15459594 -0.30647847 -0.20124297 0.2935587 -0.19059049 0.31687105 0.18505444 0.15178607
-0.1272827 0.6065483 0.14665492 0.5212936 -0.31399363 -0.22288267 0.16073819 0.4956739
-0.3206645 0.37034097 -0.2601232 -0.41443732 0.011150657 -0.11975913 0.2178258 0.041325696
-0.11279996 -0.21946608 0.3649731 -0.07126232 0.3692317 0.16228455 -0.25777504 -0.47892424
-0.04442268 0.16133036 0.24291497 0.36819232 -0.28873342 0.0827367 -0.17282082 -0.12715062
0.17640062 0.12259687 0.09270478 0.014930111 0.23135905 0.09976804 -0.32881752 0.39384168
-0.38026178 0.012033865 -0.04317591 0.08721383 -0.34629843 -0.15272741 -0.37913612 -0.2837027
-0.23592663 0.28612813 -0.1921284 0.54398185 -0.20320724 0.39664263 -0.22320986 -0.50436884
0.11770874 -0.19057097 0.28073767 -0.12364172 0.30386743 -0.07018836 0.24993533 -0.23427776

0.bias f4 [32]
00000000: f7b8 98bd 933c f23a 4e13 0dbd c924 363d
00000010: f1ff 103d c688 153d bbdc 443d 8c74 0a3d
00000020: a2ea cd3b 8c7f 24bc 7358 4ebd 2fe4 733d
00000030: d258 3bbc db5c f1bc b4ea 1a3d c61d bc3d
00000040: 925e 57bc 2c40 763d aec4 e6bb 3a20 ec3b
00000050: 0e6c 863d 9627 55bb 4920 78bd c641 14bc
00000060: c321 ad3d 1d0d 92bc 77cc 323d b56f 573d
00000070: efcd 9fbb 6c44 3a3d 2620 46bd bab6 1dbd
-0.07457154 0.0018481187 -0.03444224 0.044468675 0.035400335 0.03650739 0.048062067 0.033802554
0.006284074 -0.010040175 -0.05037732 0.059543785 -0.011434751 -0.029463222 0.037821487 0.09185366
-0.013145106 0.060119793 -0.007042489 0.00720599 0.065635785 -0.0032524816 -0.060577665 -0.009048885
0.08453705 -0.017828519 0.043652024 0.052596767 -0.004876844 0.04547541 -0.048370503 -0.03850434

2.weight f4 [32, 32]
00000000: 698f 2a3e 57e7 49be a8b4 98bd ed44 153e
00000010: 7804 213e 880f c23d 662a 3b3d d666 a43d
00000020: 1fd1 913e fb94 a1be ae2b 353d 35d1 393d
00000030: a6c3 a53c 202b b2bc e4f5 993c 1f77 ca3e
00000040: d5d7 d53d 09c3 e3bc da29 703e d85b 06bd
00000050: a257 f2bd 0d3a 97be 89df 463d a252 493d
00000060: 2a21 073e b80d d9bd ff9f 63be add8 b83e
00000070: f20c 4e3e 27ea 8cbd 5ba0 723e 6c1b 2abe
00000080: 1808 5d3e 0884 f23d aeb5 97bd ea1f 3ebe
00000090: 674c 973d 11b9 84be 426a 61be 0495 273d
000000a0: 2cb5 9dbe 2c36 a7be 1588 19bc a574 863b
000000b0: edee 3b3e d226 953e c78c ee3d cf93 423e
000000c0: 0c14 fd3d f9c4 723e 0f74 93be 5f3a acbe
000000d0: d698 b93d a781 9e3d b304 b33d f4fa 90be
000000e0: 6a2f b4bd ccbe 75be f4e7 86be 326f 843c
000000f0: 8e53 8cbc e500 c4bd 7903 243e 1cd0 0d3e
00000100: 6014 9bbc c628 18be b085 bfbc 9ed1 093e
00000110: cd40 16bd 22f6 1a3e 2a21 5ebe 585b bf3d
00000120: 7a46 91bc 7a5b 873e e175 85be d148 8a3d
00000130: 010b 3e3e ff11 893d 87b3 4dbe c1f6 55bd
00000140: 73df 6fbe eb6e 4c3e 04f2 d03d 5d0d 8d3e
00000150: af7e 783e 8262 973e b0e8 12be 0bed 913e
00000160: d563 a93e 2baa 7ebe 5859 ed3c ef76 c23b
00000170: 06f5 933e 3d04 1f3e 39dc 943b 43c8 76be
00000180: a085 1cbe fef9 6e3e 4af6 7ebd dba1 a93e
00000190: 7f79 88bc fb17 793d d7b1 e9bd b016 0ebe
000001a0: 7921 493c a321 fdbd fd55 343e c557 623e
000001b0: 4fa5 37be ee13 203c cfb0 7b3e 9178 ae3e
000001c0: 985f 2abd c39c 8bbe ed98 55be 87a1 113d
000001d0: 68e3 ab3e cb52 553d f244 153e 7b78 1e3e
000001e0: 7542 af3e 058a 2e3e a610 073e bb01 60be
000001f0: deb4 963d 4475 073e 743a 4f3e 6356 973e
00000200: cf84 39be 19fa a0be 1521 68be cf29 283d
00000210: 5f2c 99bd 465b 953e 6f3a 4d3d 796e e0bd
00000220: f35f 05be 4ad7 893e fd29 de3c d073 d93d
00000230: 15a8 543e 47cd 9fbd 0512 75be eb3b 02be
00000240: b3eb 3e3d 202b 90bc 7d5d 3a3d 70ee 923e
00000250: 18f2 633e ee3a a2bd 9144 3c3e 6e98 d13d
00000260: 20d3 d03d 9838 613e 613b 73bd 0024 9f3d
00000270: 2937 913e 6b19 973e 7917 58be c3f6 33bd
00000280: 2b5d 003e 23ad 3abc b186 23be d31e 56be
00000290: 82a8 78be 9da8 04be 0770 073e 9eae b13e
000002a0: 1a5e 8cbc b2ed 6b3e f1a2 57bd 2755 773d
000002b0: 4499 81bd cd41 b2bd 106b f83d 91a6 a8be
000002c0: 26ac 71be f2e7 bfbe a7b2 39bc 0e9f 943d
000002d0: c382 8b3e 17e6 7d3e c58c 403e 169e e83c
000002e0: f505 6a3d 9f66 993d 1787 c63c 8eec 683e
000002f0: 0ea2 96bd 04db bc3e 5510 35be 5a70 9bbe
00000300: a248 49be 182d 81be b272 6a3e ff44 9abd
00000310: 1130 ac3d fef0 09be e49a 97be 0944 6b3e
00000320: 4d3c 74be df2b 04bd 5293 303e ca4b 3c3d
00000330: f8a7 f53c 25f7 db3b ffe1 84be 5557 5a3d
00000340: 57c8 653e 7bd5 013e a480 bbbd 2500 66bd
00000350: 8bcf 8dbe 5812 9ebe 15e9 eebd 37e0 003e
00000360: 9c3e e63d b6e1 97be bde9 98bd 8179 83be
00000370: ab6b 7e3e a6f3 40be 6766 5a3e 2d8e febd
00000380: bd6c 393e 8dcd a23e 84a8 5a3d 8c27 4f3d
00000390: 7704 83bc cbe6 37be 2403 c83e 7a61 79be
000003a0: e91b c9bd 3652 053e 4012 b73c dbe5 243e
000003b0: 91af 99bc d55b 383e c4db c6bc 5ca9 d23e
000003c0: b0bf f73d ec93 d73e 10c2 1dbe fd33 84be
000003d0: 367e 81be 0fc6 08bd 1ea0 173e c539 0bbe
000003e0: cd87 463c 20a3 693e 1857 8cbe 133b 6cbe
000003f0: a724 bdbd 0c3f f43d 98ca 64bd 5738 283e
0.16656269 -0.19717155 -0.074563324 0.14577074 0.15724361 0.094756186 0.04569473 0.08027427
0.2847986 -0.31558976 0.04423111 0.04536553 0.020234894 -0.02174908 0.018794008 0.39544007
0.10441557 -0.027802961 0.23453465 -0.032802433 -0.11833121 -0.29536477 0.048553023 0.04915107
0.13196245 -0.1059832 -0.22229002 0.3610281 0.20122126 -0.068805985 0.23693983 -0.16612023
0.21585119 0.11841589 -0.074076995 -0.18566862 0.073876195 -0.25922444 -0.2201319 0.040913597
-0.30802286 -0.32658517 -0.009370823 0.0041032606 0.18352862 0.2913118 0.11647945 0.19001697
0.12357339 0.23707952 -0.28799483 -0.33638284 0.09062354 0.07739573 0.08741131 -0.28316462
-0.08798106 -0.23998564 -0.2634884 0.016166303 -0.017129686 -0.09570483 0.1601695 0.13848919
-0.018930614 -0.14859304 -0.023379177 0.13458869 -0.036682893 0.15132955 -0.21692339 0.09343594
-0.017733801 0.2643698 -0.26066497 0.0675217 0.18558885 0.066928856 -0.20088015 -0.052237276
-0.23425083 0.19964187 0.10202411 0.27549258 0.24267076 0.29567343 -0.14346576 0.28501162
0.33083978 -0.24869601 0.028973266 0.005934588 0.28897876 0.1552896 0.004542854 -0.24099831
-0.15285349 0.23337552 -0.0622466 0.33131298 -0.016659496 0.060813885 -0.114108734 -0.13875842
0.012276047 -0.12359931 0.17610927 0.22103794 -0.17934154 0.009770377 0.24579166 0.3407636
-0.04159507 -0.27268037 -0.20859118 0.035554435 0.33571935 0.05208091 0.14577082 0.15475647
0.3423039 0.17044838 0.13189945 -0.2187566 0.073587164 0.13228327 0.20237142 0.29558095
-0.18117069 -0.3144081 -0.2266887 0.041055497 -0.07479166 0.291712 0.050104555 -0.10958571
-0.13024883 0.26922065 0.027119631 0.106177926 0.20767243 -0.078028254 -0.23932655 -0.1271817
0.0466115 -0.017598689 0.045499314 0.28697538 0.2226032 -0.07921396 0.18385531 0.10234152
0.10196519 0.21994245 -0.0593828 0.07770538 0.28362396 0.2951158 -0.21102704 -0.043936502
0.12535541 -0.011393818 -0.1596935 -0.20910196 -0.2428303 -0.12954946 0.13226329 0.34703535
-0.017134715 0.23039892 -0.052645627 0.060383942 -0.06328061 -0.08703957 0.121297956 -0.3293958
-0.23600826 -0.37481648 -0.011334098 0.072569 0.272482 0.24794804 0.188037 0.028395694
0.057134587 0.074902765 0.024234338 0.22746488 -0.07355128 0.36885846 -0.17682011 -0.30359155
-0.19656613 -0.25229716 0.22895315 -0.07532691 0.084076054 -0.13470837 -0.2961036 0.22975172
-0.23851128 -0.0322684 0.17243698 0.045970716 0.02998732 0.0067128115 -0.2595367 0.053305943
0.22439705 0.12679093 -0.091553956 -0.05615248 -0.27697405 -0.3087337 -0.116655506 0.12585531
0.112424105 -0.2966439 -0.07466457 -0.25678638 0.2484576 -0.18842945 0.21328126 -0.12429462
0.18107887 0.31797448 0.053383365 0.050574824 -0.01599334 -0.17959134 0.39064896 -0.2435359
-0.098197766 0.13019642 0.02234757 0.16103308 -0.018760474 0.18003781 -0.024274714 0.41144836
0.12097108 0.42105043 -0.1540606 -0.25820914 -0.25291604 -0.03339201 0.14807174 -0.13596256
0.012117338 0.22816133 -0.27410197 -0.2306941 -0.092355065 0.11926088 -0.05585727 0.16427742

2.bias f4 [32]
00000000: 0797 103d 3d99 31bc 4eec 0d3c bb8b 573d
00000010: 37e0 aabb 1c2d 2d3d 25a8 21bd ca8c fc3b
00000020: 1a73 f83c 0926 9b3c 43a5 c4bb d58b 303b
00000030: 161a 6d3c 3227 81bc a142 96bc bee7 853d
00000040: 2cdc 63bb fa01 f13c 4e66 6cba f233 88bc
00000050: ba06 063d 2831 dc3b f2f4 82bc 3801 13bd
00000060: 27d4 14bd 067e 353c 4cbc fabc 555f 8ebc
00000070: 093b 90bc 3b26 293b 17df 04bd cba9 a4bc
0.03530028 -0.0108397575 0.008662296 0.05262349 -0.005214717 0.042279348 -0.039466996 0.007707213
0.030328322 0.018939035 -0.006001146 0.0026938815 0.014471551 -0.01576576 -0.018342318 0.06538342
-0.0034768684 0.029419888 -0.000901793 -0.016626332 0.03272126 0.006719727 -0.01598594 -0.035889834
-0.036335137 0.01107741 -0.030607365 -0.017379442 -0.017606275 0.002581014 -0.032439318 -0.020100495
