tycho_env/tycho_env/assets/res-estimator.pt (torch_old, 21174 bytes, 18 tensors)

exp_avg f4 [32, 6]
0	0xb653712e	-3.150733e-06
1	0x3643160d	2.90701e-06
2	0x36182f69	2.2677361e-06
3	0x34c735b9	3.7105727e-07
4	0x364ed3c4	3.0819656e-06
5	0x34d75659	4.0109697e-07
6	0xb6a00456	-4.7688764e-06
7	0x369f8b58	4.754791e-06
8	0x368cf160	4.200425e-06
9	0x34f863a6	4.6266103e-07
10	0x3694bd1c	4.432759e-06
11	0x353e9821	7.100189e-07
12	0xb64537c3	-2.9387745e-06
13	0x367cd7ff	3.7676652e-06
14	0x362c5c9e	2.5683908e-06
15	0x35269faa	6.207216e-07
16	0x367d8c81	3.7781722e-06
17	0x348b93ed	2.5998398e-07
18	0x36ec9692	7.050877e-06
19	0xb6b3c08a	-5.35703e-06
20	0xb6aa6886	-5.078563e-06
21	0xb5a3697e	-1.2175149e-06
22	0xb645ce0a	-2.9475218e-06
23	0xb5230695	-6.073181e-07
24	0x35756570	9.1417223e-07
25	0xb5e1a2fe	-1.6811243e-06
26	0xb60ac659	-2.0679056e-06
27	0xb3f16e62	-1.12425155e-07
28	0xb57af221	-9.34846e-07
29	0xb4cd2e92	-3.821811e-07
30	0x37107a08	8.6114815e-06
31	0xb7050843	-7.929341e-06
32	0xb6ea0eda	-6.9754724e-06
33	0xb562d6d0	-8.4504154e-07
34	0xb7004629	-7.64573e-06
35	0xb59d8c24	-1.1738198e-06
36	0x35b3c0d1	1.3392656e-06
37	0xb586b3f0	-1.0036147e-06
38	0xb5c4467c	-1.4623652e-06
39	0xb4dfaec5	-4.1664148e-07
40	0xb30488fc	-3.085823e-08
41	0xb4b03d71	-3.282726e-07
42	0x35e1db91	1.6827709e-06
43	0xb65d59cb	-3.2983833e-06
44	0xb6368b9d	-2.720138e-06
45	0xb3e440fe	-1.06288994e-07
46	0xb647fc8c	-2.9800312e-06
47	0xb51779ba	-5.642902e-07
48	0xb60ed607	-2.128423e-06
49	0x3666e733	3.4407246e-06
50	0x3651e65b	3.1277511e-06
51	0x3418ba9d	1.4223993e-07
52	0x362ef919	2.6073014e-06
53	0x353765ff	6.8321236e-07
54	0x361d694c	2.3456114e-06
55	0xb5ac496f	-1.2836371e-06
56	0xb4d5d747	-3.9830977e-07
57	0xb51e9011	-5.906923e-07
58	0xb5fa73c4	-1.8660144e-06
59	0x332d433f	4.034086e-08
60	0x369f962b	4.756051e-06
61	0xb689d15b	-4.1072904e-06
62	0xb66eab16	-3.5564349e-06
63	0xb510ff4c	-5.4015686e-07
64	0xb68162f0	-3.8560174e-06
65	0xb52789a1	-6.2412624e-07
66	0xb68cbfef	-4.194669e-06
67	0x366c0004	3.516675e-06
68	0x3653534d	3.1489938e-06
69	0x352ab4ea	6.35932e-07
70	0x36672081	3.4440602e-06
71	0x35252437	6.151999e-07
72	0x35f9b55e	1.860473e-06
73	0xb591c4a1	-1.0860568e-06
74	0xb4cb7b75	-3.7901523e-07
75	0xb44851f3	-1.8656264e-07
76	0xb60dba19	-2.111896e-06
77	0xb3d03a8c	-9.6964044e-08
78	0xb68f0bdd	-4.263113e-06
79	0x366f7492	3.5681628e-06
80	0x364eba47	3.080482e-06
81	0x35657c81	8.5490325e-07
82	0x363569cf	2.703269e-06
83	0x34ca426d	3.7673763e-07
84	0xb69afe5f	-4.6191703e-06
85	0x365f3a4e	3.3263527e-06
86	0x362de2d5	2.5911042e-06
87	0x358fd943	1.0717562e-06
88	0x362c0068	2.5630234e-06
89	0x3464b894	2.1301304e-07
90	0x352fe8b8	6.553123e-07
91	0xb5ddcf85	-1.6526179e-06
92	0xb61dde7d	-2.3524328e-06
93	0xb3bdf44c	-8.845436e-08
94	0xb580f1fd	-9.607171e-07
95	0xb516dafb	-5.6198013e-07
96	0x3603efa7	1.9660017e-06
97	0xb645327b	-2.938467e-06
98	0xb645f6e9	-2.9499008e-06
99	0x32a51466	1.9217804e-08
100	0xb622eac9	-2.4276544e-06
101	0xb5408d54	-7.1731233e-07
102	0x376056f4	1.3371686e-05
103	0xb7843a2e	-1.5762718e-05
104	0xb76358be	-1.3550916e-05
105	0xb5d07385	-1.5530828e-06
106	0xb7560a68	-1.2757817e-05
107	0xb60d8f1d	-2.109394e-06
108	0x373c629f	1.1228635e-05
109	0xb7524f00	-1.2535369e-05
110	0xb73233c5	-1.062168e-05
111	0xb5dc0d2b	-1.639511e-06
112	0xb7267e17	-9.923729e-06
113	0xb5f6fb8c	-1.8401638e-06
114	0x36b874d3	5.4972274e-06
115	0xb6a1dc67	-4.823832e-06
116	0xb67f232a	-3.801843e-06
117	0xb56dac19	-8.8539815e-07
118	0xb6a66148	-4.9585105e-06
119	0xb5265dda	-6.197639e-07
120	0x368e0ea5	4.2336346e-06
121	0xb67f7bd5	-3.807004e-06
122	0xb639dbad	-2.7695016e-06
123	0xb4b2d344	-3.33088e-07
124	0xb68b9aee	-4.160559e-06
125	0xb4db926d	-4.0898468e-07
126	0xb6468614	-2.9582343e-06
127	0x3626c770	2.4852015e-06
128	0x3614390e	2.2086929e-06
129	0x351f7449	5.9401333e-07
130	0x361057be	2.1508745e-06
131	0x34d922eb	4.0444806e-07
132	0xb5668c8e	-8.588621e-07
133	0x367b016c	3.7402742e-06
134	0x3630186e	2.6240264e-06
135	0x336d72c7	5.5285252e-08
136	0x3694f445	4.4391804e-06
137	0x34cf4605	3.86077e-07
138	0xb60e7622	-2.1228411e-06
139	0x364c3e75	3.0434724e-06
140	0x3677bbe0	3.6915226e-06
141	0x344aba53	1.88805e-07
142	0x35f62089	1.8337897e-06
143	0x3561e146	8.414685e-07
144	0xb6ba1345	-5.5454752e-06
145	0x36c5d143	5.895419e-06
146	0x36b0258e	5.2495807e-06
147	0x356b8b6f	8.7747225e-07
148	0x368dc776	4.2253478e-06
149	0x3578d3d4	9.269545e-07
150	0xb537aa49	-6.842061e-07
151	0x35ebae13	1.7559527e-06
152	0x362eb128	2.603114e-06
153	0xb468dc81	-2.1686903e-07
154	0x3542577a	7.2397927e-07
155	0x35333d07	6.67715e-07
156	0x35e68799	1.71758e-06
157	0xb5b8b4e7	-1.3761718e-06
158	0xb51f45d9	-5.933376e-07
159	0xb4154c65	-1.3904499e-07
160	0xb61f928b	-2.3778146e-06
161	0xb4146ef1	-1.3823934e-07
162	0xb62bda98	-2.5608224e-06
163	0x36673f31	3.4458465e-06
164	0x3622baca	2.4248607e-06
165	0x350914fe	5.1067025e-07
166	0x364a6652	3.0159904e-06
167	0x34ee6309	4.4403012e-07
168	0x36f0cc53	7.176344e-06
169	0xb6c64f53	-5.9100944e-06
170	0xb6b8e347	-5.510086e-06
171	0xb57532da	-9.134361e-07
172	0xb6a58fb1	-4.934111e-06
173	0xb589e19a	-1.0272954e-06
174	0x36adad8d	5.1760057e-06
175	0xb64bd9ec	-3.0376204e-06
176	0xb6185cc5	-2.2703764e-06
177	0xb5c2e301	-1.4520193e-06
178	0xb5c2c8d0	-1.451257e-06
179	0x33414b2a	4.5004676e-08
180	0x36c6d4c6	5.92563e-06
181	0xb6f3e2ae	-7.2683533e-06
182	0xb6d370fb	-6.3014427e-06
183	0xb54e9b0c	-7.6966603e-07
184	0xb6c4fb2e	-5.8704964e-06
185	0xb5a50dec	-1.229751e-06
186	0xb72b5e2e	-1.0214322e-05
187	0x373049db	1.0507613e-05
188	0x37116cf1	8.668038e-06
189	0x35e62509	1.7147114e-06
190	0x36f3ffb4	7.271732e-06
191	0x35b854c5	1.373374e-06

exp_avg_sq f4 [32, 6]
0	0x2ebcb328	8.581075e-11
1	0x2ea16451	7.339252e-11
2	0x2ec82288	9.101081e-11
3	0x2bd6e359	1.5268716e-12
4	0x2e7aadc3	5.699775e-11
5	0x2bf87f55	1.7656802e-12
6	0x2f015763	1.1763528e-10
7	0x2ed4569b	9.656028e-11
8	0x2f052ab6	1.2111454e-10
9	0x2bd34437	1.5011385e-12
10	0x2eaa348a	7.740038e-11
11	0x2c3b26ad	2.6595768e-12
12	0x2e8e8f78	6.4828976e-11
13	0x2e70d2d6	5.4756942e-11
14	0x2e99e72e	6.9987e-11
15	0x2b84431f	9.397794e-13
16	0x2e3df32f	4.3189615e-11
17	0x2bd49ab9	1.510645e-12
18	0x2fbc6438	3.426821e-10
19	0x2fa74ca3	3.0431577e-10
20	0x2fd035df	3.7873257e-10
21	0x2d072fb8	7.684457e-12
22	0x2f8df796	2.582367e-10
23	0x2cd6c3b5	6.1039737e-12
24	0x2f1e0ac6	1.4373844e-10
25	0x2f29882b	1.5418837e-10
26	0x2f37de1a	1.672266e-10
27	0x2ca594f9	4.7061213e-12
28	0x2ef1d179	1.0996621e-10
29	0x2c1ff5b0	2.2731643e-12
30	0x2fb17cf3	3.2284894e-10
31	0x2f8868cd	2.481272e-10
32	0x2fadeead	3.1638106e-10
33	0x2c797b0a	3.5453329e-12
34	0x2f4e508f	1.8764211e-10
35	0x2d08591b	7.75049e-12
36	0x2ed40ff8	9.6434805e-11
37	0x2ec7dd55	9.088789e-11
38	0x2ef1c9e1	1.0995272e-10
39	0x2c080841	1.9331344e-12
40	0x2eb27861	8.1158864e-11
41	0x2c05844a	1.8973872e-12
42	0x2f34433f	1.6394795e-10
43	0x2f38d644	1.6810825e-10
44	0x2f45d791	1.799363e-10
45	0x2cb71894	5.2039015e-12
46	0x2efbb009	1.14454286e-10
47	0x2c46778c	2.8203854e-12
48	0x2f1811cc	1.3830642e-10
49	0x2f29157c	1.5378093e-10
50	0x2f306846	1.6044152e-10
51	0x2ca2c64e	4.626333e-12
52	0x2ee45b8b	1.0384501e-10
53	0x2c21b907	2.2982187e-12
54	0x2ff0f324	4.3828507e-10
55	0x2fed24f8	4.3136317e-10
56	0x30073200	4.918377e-10
57	0x2d8bdfa6	1.590179e-11
58	0x2fb179fe	3.2282793e-10
59	0x2cf2c811	6.9002655e-12
60	0x2ecf7ae9	9.4351034e-11
61	0x2e97c2af	6.901268e-11
62	0x2ec26ebf	8.841771e-11
63	0x2b8d4398	1.0037414e-12
64	0x2e5c4244	5.0081064e-11
65	0x2c26bc21	2.3694451e-12
66	0x2edf9d95	1.0168858e-10
67	0x2eb1caa9	8.085028e-11
68	0x2ee147d4	1.02445746e-10
69	0x2be30bf8	1.6132642e-12
70	0x2e88fddb	6.229658e-11
71	0x2c19f790	2.1880033e-12
72	0x2f3c10fd	1.7104536e-10
73	0x2f43d09d	1.7809261e-10
74	0x2f5e6374	2.0226115e-10
75	0x2c855755	3.789783e-12
76	0x2f107a6c	1.3140217e-10
77	0x2c5e0511	3.155091e-12
78	0x2ed2fc55	9.5945175e-11
79	0x2eb53e70	8.242018e-11
80	0x2ee0b724	1.0218873e-10
81	0x2c2e91c2	2.48078e-12
82	0x2e912f4f	6.60224e-11
83	0x2bf29935	1.7237658e-12
84	0x2fdac2e8	3.9792458e-10
85	0x2fc42431	3.5677908e-10
86	0x2fed279f	4.31382e-10
87	0x2d68ec69	1.3240167e-11
88	0x2f9b984b	2.8302546e-10
89	0x2ce3b379	6.4716535e-12
90	0x2facb858	3.1417602e-10
91	0x2fb0a33e	3.2130204e-10
92	0x2fc461db	3.5721723e-10
93	0x2d254483	9.394377e-12
94	0x2f77ea9c	2.2547869e-10
95	0x2caad9e5	4.8558818e-12
96	0x2f9561cb	2.7172428e-10
97	0x2f94cf59	2.7068373e-10
98	0x2fa38bc3	2.9748834e-10
99	0x2d254a0f	9.395608e-12
100	0x2f4ebfdc	1.8803753e-10
101	0x2c9b9245	4.421604e-12
102	0x305d5191	8.0515244e-10
103	0x30608f5e	8.169446e-10
104	0x30737f9c	8.858423e-10
105	0x2d2f6624	9.970278e-12
106	0x301dfba1	5.7473853e-10
107	0x2da64913	1.8904467e-11
108	0x30351ccd	6.5888345e-10
109	0x302c98cf	6.279039e-10
110	0x3040d55e	7.0152406e-10
111	0x2d502f48	1.183393e-11
112	0x2ff2249a	4.404555e-10
113	0x2d763311	1.399482e-11
114	0x2f8eade5	2.595321e-10
115	0x2f781b99	2.2565273e-10
116	0x2f97b7d2	2.7597352e-10
117	0x2cc6620e	5.6383847e-12
118	0x2f3c27a5	1.7112585e-10
119	0x2cb1663c	5.041993e-12
120	0x2f8aeaaf	2.5268806e-10
121	0x2f838312	2.3921892e-10
122	0x2f9bceb0	2.8341196e-10
123	0x2cbae2a8	5.311602e-12
124	0x2f4bd4f9	1.8538406e-10
125	0x2ca7f07b	4.773124e-12
126	0x2e1eaffb	3.6081343e-11
127	0x2df01af5	2.7296812e-11
128	0x2e190831	3.4795448e-11
129	0x2b3acacc	6.636191e-13
130	0x2db7179a	2.0815173e-11
131	0x2b492f0f	7.147485e-13
132	0x2fcdd6ec	3.7441994e-10
133	0x2fc90ad6	3.6569386e-10
134	0x2fe17cc0	4.1015902e-10
135	0x2d3db6e2	1.0784014e-11
136	0x2f93729b	2.6820576e-10
137	0x2cef7670	6.8059378e-12
138	0x2fe9ac92	4.2505072e-10
139	0x2ff802c1	4.5112894e-10
140	0x3006ae98	4.899703e-10
141	0x2d769f66	1.4018875e-11
142	0x2fadcae4	3.161268e-10
143	0x2ce9844a	6.6369453e-12
144	0x2f20a88a	1.4611792e-10
145	0x2f2172c0	1.4683632e-10
146	0x2f33770c	1.6322249e-10
147	0x2c286cce	2.3934635e-12
148	0x2ef06a1b	1.09327845e-10
149	0x2c53dead	3.0108513e-12
150	0x2fec5516	4.2988607e-10
151	0x2ff47034	4.4463067e-10
152	0x3006ff2c	4.9111537e-10
153	0x2d886f6a	1.5510888e-11
154	0x2fae1838	3.1667624e-10
155	0x2ce7d1ff	6.588729e-12
156	0x2f03d940	1.1991563e-10
157	0x2f06459f	1.2211963e-10
158	0x2f1b63ba	1.4132598e-10
159	0x2c134231	2.09267e-12
160	0x2ecb1b45	9.236215e-11
161	0x2c2789ba	2.380858e-12
162	0x2e916579	6.611862e-11
163	0x2e8edcbd	6.4966234e-11
164	0x2e9e7fc0	7.207701e-11
165	0x2bd00f92	1.478361e-12
166	0x2e4157e7	4.3961192e-11
167	0x2bb6f764	1.3000542e-12
168	0x2f349a07	1.6425626e-10
169	0x2f07e6c1	1.2360159e-10
170	0x2f28cbe0	1.5351942e-10
171	0x2c072116	1.920302e-12
172	0x2ebf0d90	8.6880836e-11
173	0x2c87ad91	3.8562005e-12
174	0x2feabfad	4.2700546e-10
175	0x2fcd4a64	3.734214e-10
176	0x2ff77258	4.5010284e-10
177	0x2d8b2872	1.5820432e-11
178	0x2f9d6bd0	2.863474e-10
179	0x2ce26352	6.434333e-12
180	0x2fb0427e	3.206146e-10
181	0x2fb535cb	3.296193e-10
182	0x2fc26734	3.5361725e-10
183	0x2d118a92	8.2730645e-12
184	0x2f772377	2.2477119e-10
185	0x2cd28453	5.98325e-12
186	0x2fff6b98	4.646068e-10
187	0x2ff7a347	4.5045054e-10
188	0x300b9e49	5.079284e-10
189	0x2d0c8995	7.988628e-12
190	0x2fb34dd0	3.26152e-10
191	0x2d2b2f9a	9.730794e-12

exp_avg f4 [32]
0	0x3611cb38	2.1724973e-06
1	0x3649f52a	3.0094038e-06
2	0x362501d7	2.4587987e-06
3	0xb6419982	-2.8848594e-06
4	0xb502f4ea	-4.878517e-07
5	0xb6b9a5fb	-5.5327523e-06
6	0xb3d27f4a	-9.802041e-08
7	0xb5ce6d0e	-1.5379935e-06
8	0x35b1bba0	1.3242134e-06
9	0xb5c8b445	-1.4953627e-06
10	0xb6428418	-2.8985141e-06
11	0x362b4e7a	2.5526665e-06
12	0xb5e6328c	-1.7151046e-06
13	0x3616da71	2.2478891e-06
14	0x36147f5f	2.2127858e-06
15	0xb4045e09	-1.2327668e-07
16	0xb5adec41	-1.2958263e-06
17	0xb709a9da	-8.205383e-06
18	0xb6e17272	-6.7188457e-06
19	0xb67908b2	-3.7108953e-06
20	0xb644fc2e	-2.9353064e-06
21	0x35dcada8	1.6441818e-06
22	0x3605aebd	1.9920255e-06
23	0x35596042	8.0978873e-07
24	0x36476731	2.9713376e-06
25	0x33776d18	5.760839e-08
26	0xb5e586a5	-1.7101016e-06
27	0x35fab0e5	1.8677935e-06
28	0xb680be60	-3.83686e-06
29	0xb60ba306	-2.0807506e-06
30	0xb674281a	-3.6382175e-06
31	0x36b5a19a	5.4130333e-06

exp_avg_sq f4 [32]
0	0x2dd3016e	2.3988558e-11
1	0x2e0b032e	3.1607765e-11
2	0x2d9d257a	1.7865476e-11
3	0x2ed209de	9.551447e-11
4	0x2e492353	4.5733483e-11
5	0x2eb89f78	8.3956786e-11
6	0x2df72b88	2.809998e-11
7	0x2e598520	4.9458326e-11
8	0x2e434bc5	4.4405164e-11
9	0x2f112e45	1.3204111e-10
10	0x2dcf24f5	2.3549588e-11
11	0x2debee26	2.6822166e-11
12	0x2e711276	5.4813452e-11
13	0x2de85af6	2.6415741e-11
14	0x2ef5e748	1.1182394e-10
15	0x2ed4de15	9.6800935e-11
16	0x2eb25c4c	8.110898e-11
17	0x2f836d18	2.3906277e-10
18	0x2f4f2df5	1.8842868e-10
19	0x2ea0dc7c	7.3151235e-11
20	0x2ea5e3b7	7.5437816e-11
21	0x2d215a56	9.171849e-12
22	0x2ef22942	1.1012215e-10
23	0x2f13dc37	1.3447808e-10
24	0x2e40025a	4.3657834e-11
25	0x2f135075	1.3398156e-10
26	0x2e26fcd4	3.7968587e-11
27	0x2da9e1a7	1.9313285e-11
28	0x2e348a51	4.105011e-11
29	0x2f0088d0	1.1690138e-10
30	0x2ed4b933	9.673542e-11
31	0x2f142121	1.3472291e-10

exp_avg f4 [32, 32]
0	0xb60eea38	-2.1295982e-06
1	0xb6108163	-2.1532985e-06
2	0xb5f20677	-1.8032287e-06
3	0xb586559e	-1.0008696e-06
4	0xb60208cc	-1.937663e-06
5	0xb54619d0	-7.379831e-07
6	0xb5ee0b20	-1.773562e-06
7	0xb5a1b680	-1.2048549e-06
8	0xb5b0d618	-1.3175331e-06
9	0xb57156cf	-8.990582e-07
10	0xb51c1da5	-5.8157667e-07
11	0xb6139a3b	-2.199448e-06
12	0xb5526ffe	-7.8394066e-07
13	0xb60f9216	-2.1393694e-06
14	0xb5fd890a	-1.8889853e-06
15	0xb5f13808	-1.7972206e-06
16	0xb5cd9f55	-1.5320062e-06
17	0xb58b9c87	-1.0401862e-06
18	0xb59311eb	-1.0957568e-06
19	0xb54c737d	-7.616398e-07
20	0xb54276cd	-7.244351e-07
21	0xb61e72c6	-2.3610642e-06
22	0xb5d60116	-1.5944559e-06
23	0xb58a05f2	-1.0283532e-06
24	0xb5d66374	-1.5973187e-06
25	0xb5855fb8	-9.93713e-07
26	0xb5587dc0	-8.064926e-07
27	0xb5f202ae	-1.8031185e-06
28	0xb50b0399	-5.178677e-07
29	0xb581017b	-9.61168e-07
30	0xb5a6eaec	-1.2436335e-06
31	0xb5f7207a	-1.8412386e-06
32	0x35d3eea9	1.5790184e-06
33	0x35dbcec6	1.637695e-06
34	0x35a26c5f	1.2101481e-06
35	0x359b02cb	1.1549213e-06
36	0x35cf530c	1.5446872e-06
37	0x356607d5	8.5693074e-07
38	0x35c1666b	1.4409428e-06
39	0x3585e5fe	9.976209e-07
40	0x35b9657e	1.3813112e-06
41	0x3597fdea	1.1324275e-06
42	0x3535181f	6.7462855e-07
43	0x35e29541	1.6881751e-06
44	0x3584acf3	9.885101e-07
45	0x35cb431b	1.5144209e-06
46	0x35bbff01	1.4006802e-06
47	0x35c14a61	1.4401268e-06
48	0x35a21dfb	1.2078666e-06
49	0x3582b0fe	9.737266e-07
50	0x35a14fc3	1.2018648e-06
51	0x3581ed6c	9.680348e-07
52	0x3571a201	9.0015243e-07
53	0x35fb7fca	1.8738149e-06
54	0x35c920e4	1.4985239e-06
55	0x35975cc5	1.1277376e-06
56	0x35a1719d	1.2028501e-06
57	0x359a9457	1.1517067e-06
58	0x3586d114	1.0044628e-06
59	0x35b49080	1.34531e-06
60	0x35291e72	6.300171e-07
61	0x35a6bd2b	1.2423019e-06
62	0x35a2fda4	1.214376e-06
63	0x359d5066	1.172081e-06
64	0xb33a3ad3	-4.336e-08
65	0xb360e110	-5.2358757e-08
66	0xb2e36af5	-2.6474916e-08
67	0xb3d6178c	-9.969435e-08
68	0xb3de7e40	-1.0360645e-07
69	0xb428541b	-1.5676817e-07
70	0xb20ad437	-8.080909e-09
71	0xb3ba0aec	-8.6632866e-08
72	0xb4368957	-1.7000035e-07
73	0xb40d58e8	-1.3163992e-07
74	0xb40c9bfe	-1.3095266e-07
75	0xb3893a36	-6.390148e-08
76	0xb43a6938	-1.7360878e-07
77	0xb37ed663	-5.9333967e-08
78	0xb3cf6f65	-9.659451e-08
79	0xb3736294	-5.6667503e-08
80	0xb3e7610f	-1.07744306e-07
81	0xb3fdbb32	-1.1815281e-07
82	0xb41d02ec	-1.4622827e-07
83	0xb4219603	-1.5048867e-07
84	0xb4112b61	-1.3519958e-07
85	0xb3d56400	-9.936775e-08
86	0xb3c5f4fa	-9.218088e-08
87	0xb41edf5f	-1.4796159e-07
88	0xb3c68b2d	-9.2454094e-08
89	0xb4176ef2	-1.4103333e-07
90	0xb449547f	-1.8750323e-07
91	0xb34c4771	-4.7562427e-08
92	0xb3e8b80e	-1.0836821e-07
93	0xb4213ceb	-1.5016455e-07
94	0xb40c0642	-1.3040793e-07
95	0xb2b8dbd4	-2.1520385e-08
96	0x3574e514	9.1230436e-07
97	0x356df64b	8.8647784e-07
98	0x3584de90	9.899541e-07
99	0x34ec9301	4.4065385e-07
100	0x35590ba6	8.085575e-07
101	0x34883770	2.537231e-07
102	0x355d32c8	8.240281e-07
103	0x34e94c8d	4.345533e-07
104	0x35167af5	5.605828e-07
105	0x34b26c08	3.3233687e-07
106	0x346bcfbb	2.1961652e-07
107	0x3576accc	9.1893594e-07
108	0x34867011	2.5040984e-07
109	0x357145b4	8.988093e-07
110	0x3546faf7	7.412595e-07
111	0x35379b22	6.839856e-07
112	0x3525e706	6.1803473e-07
113	0x34eaf43b	4.3763598e-07
114	0x34e13ecd	4.195521e-07
115	0x348ab032	2.5832702e-07
116	0x3490739b	2.6906204e-07
117	0x358204e7	9.687182e-07
118	0x35563928	7.9804386e-07
119	0x34d7be1c	4.0185193e-07
120	0x3532647d	6.6456397e-07
121	0x34d27656	3.920165e-07
122	0x34860d7d	2.496926e-07
123	0x356346b6	8.466699e-07
124	0x3470bb49	2.2419876e-07
125	0x34eadda1	4.3747153e-07
126	0x34fc98a5	4.704972e-07
127	0x35486732	7.4655975e-07
128	0xb4b4fd28	-3.3711808e-07
129	0xb4d91765	-4.0436422e-07
130	0xb40a6429	-1.288869e-07
131	0xb4fdbde4	-4.7263086e-07
132	0xb4df4e53	-4.1593975e-07
133	0xb4edf8a2	-4.4325594e-07
134	0xb4b214b3	-3.3170144e-07
135	0xb4c21958	-3.6153756e-07
136	0xb5160097	-5.588021e-07
137	0xb5141731	-5.5168044e-07
138	0xb4b21cea	-3.317612e-07
139	0xb4dd4d73	-4.122081e-07
140	0xb513225c	-5.4811767e-07
141	0xb4b23513	-3.31937e-07
142	0xb4c4cb17	-3.6655612e-07
143	0xb4d3cee1	-3.9452337e-07
144	0xb4bf56fb	-3.563981e-07
145	0xb4c78b21	-3.7167868e-07
146	0xb508eddc	-5.101008e-07
147	0xb507de1c	-5.061463e-07
148	0xb4fa0f54	-4.657728e-07
149	0xb507267a	-5.034741e-07
150	0xb4e98b33	-4.3500913e-07
151	0xb50d199b	-5.2563854e-07
152	0xb4bf9590	-3.5685343e-07
153	0xb512d9c8	-5.470615e-07
154	0xb51331a3	-5.4834e-07
155	0xb4aa1a94	-3.1684306e-07
156	0xb4a5639f	-3.080613e-07
157	0xb518d528	-5.6934596e-07
158	0xb4f61090	-4.5833121e-07
159	0xb481b05c	-2.415644e-07
160	0x35b04ec3	1.3135945e-06
161	0x35aef020	1.3033896e-06
162	0x35b0e2fd	1.3179084e-06
163	0x350a0329	5.1413605e-07
164	0x3595c675	1.1159124e-06
165	0x349effb0	2.961583e-07
166	0x359ad182	1.1534869e-06
167	0x352ad782	6.364354e-07
168	0x35394ec2	6.903248e-07
169	0x34dd5ee3	4.1233497e-07
170	0x347ea61a	2.3716021e-07
171	0x35b1e923	1.3255379e-06
172	0x34a41854	3.0565081e-07
173	0x35b35b5f	1.3363132e-06
174	0x3591e85f	1.0870971e-06
175	0x3586cb69	1.0042978e-06
176	0x35659b36	8.553501e-07
177	0x3512b2a8	5.464922e-07
178	0x3504f8f3	4.95361e-07
179	0x34a2bf52	3.0314055e-07
180	0x34ab761d	3.193717e-07
181	0x35bac104	1.3914255e-06
182	0x3586788b	1.0018861e-06
183	0x350cc51b	5.244089e-07
184	0x3584d145	9.895672e-07
185	0x3506c9c0	5.0212475e-07
186	0x349f9f16	2.9731808e-07
187	0x35a2054a	1.207148e-06
188	0x347c90f8	2.3522068e-07
189	0x34f8fe35	4.637856e-07
190	0x352061f7	5.97472e-07
191	0x35a1ff33	1.2069708e-06
192	0xb6359b48	-2.7061487e-06
193	0xb63a1083	-2.772577e-06
194	0xb6154ba7	-2.2246766e-06
195	0xb5cd8d3a	-1.5314793e-06
196	0xb63a0b25	-2.7722647e-06
197	0xb5f452d0	-1.8203518e-06
198	0xb61b0bd8	-2.3103694e-06
199	0xb60811dc	-2.0275975e-06
200	0xb61048eb	-2.1500116e-06
201	0xb5ecd135	-1.7644257e-06
202	0xb5c1a30c	-1.4427073e-06
203	0xb63f5e96	-2.8516274e-06
204	0xb5f62475	-1.8339039e-06
205	0xb64a262f	-3.0122571e-06
206	0xb63d2e98	-2.8190316e-06
207	0xb626680b	-2.4796489e-06
208	0xb6226265	-2.4197154e-06
209	0xb609e1a8	-2.054594e-06
210	0xb60fdbee	-2.1436676e-06
211	0xb5e907e3	-1.7362148e-06
212	0xb5d7d5e8	-1.6081003e-06
213	0xb65e11eb	-3.3091007e-06
214	0xb60e2aee	-2.1184637e-06
215	0xb601551f	-1.9272045e-06
216	0xb62131c0	-2.4019828e-06
217	0xb5fd5ac0	-1.8876381e-06
218	0xb6009e62	-1.9165677e-06
219	0xb62b756c	-2.5549334e-06
220	0xb5a92669	-1.260266e-06
221	0xb5d9ee52	-1.623712e-06
222	0xb6108954	-2.1537608e-06
223	0xb62c0876	-2.5634922e-06
224	0xb5a1d968	-1.2058708e-06
225	0xb5a18d3f	-1.2036543e-06
226	0xb575ec3e	-9.161339e-07
227	0xb52725a2	-6.226711e-07
228	0xb59e1659	-1.1778421e-06
229	0xb4fbe904	-4.6921934e-07
230	0xb57de8f0	-9.4588813e-07
231	0xb53c2a87	-7.0097343e-07
232	0xb552be04	-7.8507605e-07
233	0xb5094b0f	-5.11457e-07
234	0xb4ccdda1	-3.8159217e-07
235	0xb5a4d313	-1.2280383e-06
236	0xb4f1ec53	-4.5061697e-07
237	0xb59998e9	-1.1443891e-06
238	0xb590c9f8	-1.0787617e-06
239	0xb58ecd9f	-1.0639668e-06
240	0xb577d097	-9.231821e-07
241	0xb52873c6	-6.275335e-07
242	0xb549a021	-7.5111353e-07
243	0xb50199f8	-4.82803e-07
244	0xb4d74cb5	-4.0102682e-07
245	0xb5b0efec	-1.3182848e-06
246	0xb56ef318	-8.9015657e-07
247	0xb5151f80	-5.5552664e-07
248	0xb554ed55	-7.932152e-07
249	0xb5107554	-5.3814915e-07
250	0xb5014006	-4.814941e-07
251	0xb56e92ad	-8.887535e-07
252	0xb4b926c3	-3.4487138e-07
253	0xb527166d	-6.224498e-07
254	0xb55e6790	-8.285215e-07
255	0xb567e290	-8.63839e-07

exp_avg_sq f4 [32, 32]
0	0x2e3bec50	4.2728765e-11
1	0x2e5208a0	4.7756132e-11
2	0x2deb76c5	2.6769151e-11
3	0x2d36992e	1.0379515e-11
4	0x2e2f6f7b	3.9889408e-11
5	0x2d1950aa	8.714954e-12
6	0x2dd23fdb	2.3902593e-11
7	0x2d9264bf	1.6643019e-11
8	0x2ddf23b0	2.5368013e-11
9	0x2d4e0cdc	1.17126e-11
10	0x2cc5d6fe	5.6229457e-12
11	0x2e553c1f	4.848399e-11
12	0x2d57c7f1	1.2265731e-11
13	0x2e4969f2	4.5796207e-11
14	0x2e365e96	4.1466018e-11
15	0x2e156ca8	3.3975184e-11
16	0x2de4e142	2.6020634e-11
17	0x2d3a3e60	1.0586726e-11
18	0x2d745dc6	1.3890616e-11
19	0x2d34a8b4	1.0269275e-11
20	0x2d0df8c2	8.070157e-12
21	0x2e7feded	5.8191608e-11
22	0x2deb0d98	2.6722444e-11
23	0x2d92b95b	1.6680593e-11
24	0x2e0cb607	3.1993987e-11
25	0x2d815ee0	1.4707735e-11
26	0x2d5ae3e5	1.2442468e-11
27	0x2e01c114	2.9502692e-11
28	0x2c8939a3	3.900173e-12
29	0x2d3b7951	1.0656657e-11
30	0x2d9dffa1	1.7962356e-11
31	0x2e293ca5	3.8480014e-11
32	0x2e0203de	2.9562013e-11
33	0x2e12a395	3.3341847e-11
34	0x2dc18a82	2.200307e-11
35	0x2d0a0960	7.8464735e-12
36	0x2df224dd	2.7528585e-11
37	0x2cf4934d	6.9512508e-12
38	0x2da10424	1.830542e-11
39	0x2d3957ed	1.0535556e-11
40	0x2dae8e88	1.9844806e-11
41	0x2d243218	9.333444e-12
42	0x2c9e3607	4.4966283e-12
43	0x2e12a68a	3.3344473e-11
44	0x2d2bab61	9.758278e-12
45	0x2e122e5a	3.3237725e-11
46	0x2df4c7e3	2.7828356e-11
47	0x2dbdd7fe	2.1582732e-11
48	0x2d95dd35	1.7037574e-11
49	0x2cf4e6de	6.9605285e-12
50	0x2d211ba8	9.157931e-12
51	0x2d0aa6f5	7.881464e-12
52	0x2cdde474	6.306561e-12
53	0x2e35dcc4	4.1350715e-11
54	0x2dbf6636	2.1759577e-11
55	0x2d6f5350	1.3604076e-11
56	0x2ddacfa2	2.4875938e-11
57	0x2d560e3f	1.2167655e-11
58	0x2d2db9ff	9.875211e-12
59	0x2dd0144c	2.3655876e-11
60	0x2c5a5065	3.1024291e-12
61	0x2d186278	8.662064e-12
62	0x2d499aab	1.145987e-11
63	0x2e00fcbc	2.9328304e-11
64	0x2d100f73	8.188883e-12
65	0x2d221b45	9.214689e-12
66	0x2cc2ea34	5.5398134e-12
67	0x2c0e61f9	2.02338e-12
68	0x2d067271	7.642429e-12
69	0x2bf973fd	1.7724707e-12
70	0x2ca5da9d	4.713853e-12
71	0x2c54a9d0	3.0221277e-12
72	0x2cb44ef5	5.1246737e-12
73	0x2c236d63	2.3224415e-12
74	0x2ba2735f	1.1542814e-12
75	0x2d22b441	9.248658e-12
76	0x2c2e6545	2.4783103e-12
77	0x2d1c7ec7	8.895724e-12
78	0x2d096e60	7.8120566e-12
79	0x2cdbcd34	6.2471365e-12
80	0x2ca9d252	4.826619e-12
81	0x2c061190	1.9052294e-12
82	0x2c326086	2.5348903e-12
83	0x2c0f4bae	2.0363533e-12
84	0x2be0e12f	1.5978658e-12
85	0x2d44a44a	1.117779e-11
86	0x2cc10862	5.4863206e-12
87	0x2c6f12d8	3.3974403e-12
88	0x2ce2de2d	6.447973e-12
89	0x2c52a3e4	2.9933772e-12
90	0x2c30ab1f	2.5106096e-12
91	0x2cd1f5a6	5.9674097e-12
92	0x2b61388b	8.0014527e-13
93	0x2c173ab6	2.1490982e-12
94	0x2c65d1cb	3.2659316e-12
95	0x2d07283f	7.682798e-12
96	0x2c99db97	4.372901e-12
97	0x2cad9ab2	4.9341304e-12
98	0x2c464547	2.817595e-12
99	0x2b8bc122	9.930149e-13
100	0x2c8e9772	4.0526965e-12
101	0x2b93d31c	1.0503573e-12
102	0x2c2c166e	2.4455121e-12
103	0x2bfb46ac	1.7854238e-12
104	0x2c41fe9a	2.7568282e-12
105	0x2bbdfe05	1.3499762e-12
106	0x2b398248	6.5906005e-13
107	0x2cb115be	5.0330564e-12
108	0x2bd5da1a	1.5195096e-12
109	0x2cb1c3da	5.0523865e-12
110	0x2c9cebc6	4.4599628e-12
111	0x2c705545	3.4153385e-12
112	0x2c402a55	2.730834e-12
113	0x2ba1063e	1.1441471e-12
114	0x2bc760f1	1.4166707e-12
115	0x2ba74793	1.188593e-12
116	0x2b866edb	9.552041e-13
117	0x2cdc8661	6.267695e-12
118	0x2c3ee240	2.7126218e-12
119	0x2c0b0929	1.9758173e-12
120	0x2c830014	3.7232526e-12
121	0x2bf36851	1.7295142e-12
122	0x2bdde327	1.5766042e-12
123	0x2c678263	3.2899454e-12
124	0x2aef6875	4.252741e-13
125	0x2b969470	1.0699341e-12
126	0x2c000853	1.8194515e-12
127	0x2c9d12ed	4.4643096e-12
128	0x2df71757	2.8091014e-11
129	0x2e0b0471	3.1608886e-11
130	0x2da629f6	1.889065e-11
131	0x2cf87a53	7.0621647e-12
132	0x2de47d8a	2.597635e-11
133	0x2cbf484e	5.436574e-12
134	0x2d8eaf1d	1.6221297e-11
135	0x2d338e19	1.0206524e-11
136	0x2d97c564	1.7254372e-11
137	0x2d09872b	7.817562e-12
138	0x2c776eba	3.5162277e-12
139	0x2e0b914b	3.1733987e-11
140	0x2d0c4e44	7.975457e-12
141	0x2e03c3c4	2.9959826e-11
142	0x2de79029	2.632568e-11
143	0x2dbd3c22	2.1513517e-11
144	0x2d8eb5f9	1.6224343e-11
145	0x2cda89bb	6.211224e-12
146	0x2d145ee5	8.433897e-12
147	0x2ce87aac	6.607456e-12
148	0x2cb89a9c	5.2467596e-12
149	0x2e26fead	3.7970228e-11
150	0x2da5750e	1.8810311e-11
151	0x2d45c34d	1.1241519e-11
152	0x2dbd2de5	2.1507194e-11
153	0x2d2f1c27	9.953849e-12
154	0x2d0bff74	7.957957e-12
155	0x2db0cfe9	2.0101214e-11
156	0x2c2f32bf	2.4897165e-12
157	0x2d023f6d	7.403728e-12
158	0x2d41e106	1.1020745e-11
159	0x2de29e7c	2.5763607e-11
160	0x2e092676	3.1184354e-11
161	0x2e191064	3.480273e-11
162	0x2db04614	2.0040004e-11
163	0x2d08efb0	7.783926e-12
164	0x2e012ca8	2.9370867e-11
165	0x2ceb9382	6.6954784e-12
166	0x2d9b5246	1.7657997e-11
167	0x2d532eae	1.2004326e-11
168	0x2da518a6	1.8769274e-11
169	0x2d173944	8.596072e-12
170	0x2c99762b	4.361641e-12
171	0x2e1ac124	3.518709e-11
172	0x2d2005bc	9.09622e-12
173	0x2e11c5a0	3.314471e-11
174	0x2e03fcf5	3.0010622e-11
175	0x2dd8dd55	2.4654648e-11
176	0x2da6c91f	1.896133e-11
177	0x2d08f3f7	7.784876e-12
178	0x2d35de09	1.03379605e-11
179	0x2d07a68b	7.7108415e-12
180	0x2cd1f63f	5.967476e-12
181	0x2e394983	4.212942e-11
182	0x2daf978d	1.9962499e-11
183	0x2d572323	1.2229137e-11
184	0x2dcb5a75	2.3118599e-11
185	0x2d3e204e	1.0807423e-11
186	0x2d221937	9.214233e-12
187	0x2dbdef46	2.1593071e-11
188	0x2c56d780	3.0530856e-12
189	0x2d0d56ef	8.034225e-12
190	0x2d68342b	1.3199257e-11
191	0x2df30631	2.7628651e-11
192	0x2e204156	3.6437818e-11
193	0x2e31d568	4.0434683e-11
194	0x2df761c1	2.812406e-11
195	0x2d2e6560	9.913265e-12
196	0x2e17a6a8	3.4481445e-11
197	0x2d19602d	8.718398e-12
198	0x2dcc23f0	2.3208074e-11
199	0x2d6d341c	1.3483461e-11
200	0x2dd38063	2.4044938e-11
201	0x2d46d3cd	1.1302026e-11
202	0x2cc64e2a	5.6361764e-12
203	0x2e33752e	4.0803964e-11
204	0x2d4c29ce	1.160534e-11
205	0x2e33483a	4.0764038e-11
206	0x2e17a155	3.4476717e-11
207	0x2dec1bbc	2.684241e-11
208	0x2dc03685	2.1852084e-11
209	0x2d2c6b46	9.8008875e-12
210	0x2d5a979e	1.2425531e-11
211	0x2d2b1768	9.725422e-12
212	0x2d082f87	7.741258e-12
213	0x2e5f29a4	5.0741314e-11
214	0x2df00ee2	2.729145e-11
215	0x2d8efd97	1.6256147e-11
216	0x2e01892d	2.945304e-11
217	0x2d8136b4	1.4689895e-11
218	0x2d4e62fa	1.17317215e-11
219	0x2e012301	2.9362294e-11
220	0x2c8d0185	4.0076297e-12
221	0x2d3ea5e4	1.0837085e-11
222	0x2d844af5	1.503995e-11
223	0x2e1872c2	3.4662724e-11
224	0x2d5a3802	1.24043015e-11
225	0x2d7471d0	1.3895066e-11
226	0x2d00c52e	7.31974e-12
227	0x2c4133f6	2.7455794e-12
228	0x2d456169	1.1219783e-11
229	0x2c22c956	2.3133349e-12
230	0x2cebad3d	6.698335e-12
231	0x2cb2eca1	5.0853354e-12
232	0x2cf5e95f	6.989228e-12
233	0x2c6d64a4	3.3735592e-12
234	0x2bcdf78b	1.4634833e-12
235	0x2d7bf538	1.4322148e-11
236	0x2c7887dc	3.5318337e-12
237	0x2d708067	1.3670932e-11
238	0x2d5a3edb	1.2405822e-11
239	0x2d3127c8	1.0070118e-11
240	0x2d063807	7.629459e-12
241	0x2c5bc726	3.1232321e-12
242	0x2c87bd1d	3.8579266e-12
243	0x2c461a13	2.8151966e-12
244	0x2c25f0aa	2.3581506e-12
245	0x2d97feb8	1.727983e-11
246	0x2cfab0df	7.125064e-12
247	0x2ca874b3	4.7878034e-12
248	0x2d28d908	9.597885e-12
249	0x2c932381	4.181933e-12
250	0x2c801735	3.6405553e-12
251	0x2d16806d	8.555029e-12
252	0x2b88d6b5	9.722974e-13
253	0x2c411419	2.7438106e-12
254	0x2cb4cfd6	5.138982e-12
255	0x2d4f81df	1.1795425e-11

exp_avg f4 [32]
0	0xb6404b37	-2.865401e-06
1	0x3629815e	2.5258264e-06
2	0xb45209b4	-1.9561304e-07
3	0x359c20db	1.1632468e-06
4	0xb5649c40	-8.516399e-07
5	0x35d8790e	1.6128486e-06
6	0xb694acd6	-4.4308645e-06
7	0xb5daba3d	-1.6296468e-06
8	0xb2630772	-1.3214832e-08
9	0xb42069bc	-1.4939627e-07
10	0x36076ff1	2.0181726e-06
11	0xb4369c04	-1.7006829e-07
12	0x35e12998	1.6775912e-06
13	0x34bf6b12	3.5654426e-07
14	0x3499201e	2.852184e-07
15	0xb61085ba	-2.1535511e-06
16	0xb635be08	-2.7081715e-06
17	0x34bcfb99	3.520079e-07
18	0x34fa4533	4.6616478e-07
19	0xb64dee4a	-3.0686083e-06
20	0xb55954fb	-8.096246e-07
21	0xb64a5be8	-3.0153842e-06
22	0x366cc6c1	3.528243e-06
23	0x365ee00c	3.321099e-06
24	0xb5669828	-8.5903093e-07
25	0x354bbc05	7.5897e-07
26	0xb5f947a3	-1.8572795e-06
27	0xb63af3f3	-2.7858157e-06
28	0x365689e3	3.1968746e-06
29	0x35d300ab	1.572092e-06
30	0xb68817fb	-4.0559075e-06
31	0x35dfc2b6	1.6671463e-06

exp_avg_sq f4 [32]
0	0x2ec96540	9.1584074e-11
1	0x2e922410	6.645717e-11
2	0x2d9c1be8	1.774754e-11
3	0x2d2dd23f	9.8805955e-12
4	0x2e840584	6.003645e-11
5	0x2e930480	6.6855854e-11
6	0x2eb41236	8.188687e-11
7	0x2de9e439	2.6590384e-11
8	0x2b4fabd4	7.377963e-13
9	0x2dc1fe27	2.2054426e-11
10	0x2e8f08b6	6.5044345e-11
11	0x2db7150c	2.0814038e-11
12	0x2e2a8d78	3.8779174e-11
13	0x2e80311d	5.8294904e-11
14	0x2d5d6d2f	1.2586639e-11
15	0x2e1ade40	3.5212944e-11
16	0x2e4ea6f4	4.698726e-11
17	0x2ceef299	6.7913006e-12
18	0x2d47d5d3	1.1359319e-11
19	0x2eb9d4fb	8.450659e-11
20	0x2f068c26	1.223702e-10
21	0x2ec88db8	9.120121e-11
22	0x2eb92f59	8.4212366e-11
23	0x2e355545	4.123037e-11
24	0x2dcf331f	2.3555878e-11
25	0x2e9d5cb3	7.156e-11
26	0x2e867980	6.115197e-11
27	0x2e73df44	5.5450103e-11
28	0x2ee88bdc	1.05749826e-10
29	0x2dd45473	2.4139113e-11
30	0x2ea25bf4	7.383241e-11
31	0x2e85202e	6.053856e-11

exp_avg f4 [6, 32]
0	0x36ff13c1	7.601892e-06
1	0x370c527c	8.363855e-06
2	0x37137bf4	8.790743e-06
3	0x36b771ad	5.4670586e-06
4	0x3707a922	8.086006e-06
5	0x3704f8ef	7.9257725e-06
6	0x3720c7a5	9.5832265e-06
7	0x36bc4b80	5.611626e-06
8	0x3734d640	1.077872e-05
9	0x36db9afd	6.5447516e-06
10	0x37028ada	7.780933e-06
11	0x36e15b6a	6.7161645e-06
12	0x37102cc8	8.593495e-06
13	0x36ef57c4	7.1329723e-06
14	0x36f08663	7.168202e-06
15	0x3724422a	9.790567e-06
16	0x36e455d0	6.8049194e-06
17	0x36efaa3e	7.142574e-06
18	0x36daca4d	6.520457e-06
19	0x36d64e4f	6.3868133e-06
20	0x36a68231	4.962342e-06
21	0x36d711b2	6.4095593e-06
22	0x36d08303	6.214135e-06
23	0x36c1f105	5.7799066e-06
24	0x370b542b	8.3046425e-06
25	0x370dde38	8.455994e-06
26	0x36b141d4	5.2826745e-06
27	0x370204c4	7.749713e-06
28	0x36da49b5	6.505487e-06
29	0x371a0bec	9.181891e-06
30	0x3702ab53	7.788493e-06
31	0x36d233c5	6.2645145e-06
32	0xb666dbee	-3.4400687e-06
33	0xb66c1755	-3.5180321e-06
34	0xb60ea02b	-2.125288e-06
35	0xb5756a15	-9.142398e-07
36	0xb59ab096	-1.1525287e-06
37	0xb5e2a8ff	-1.6887496e-06
38	0xb60cd75d	-2.0986984e-06
39	0xb66dce4b	-3.543583e-06
40	0xb68000e2	-3.8148e-06
41	0xb620da21	-2.3968826e-06
42	0xb61e5d82	-2.3598263e-06
43	0xb5b1b78e	-1.3240949e-06
44	0xb6128d88	-2.1838077e-06
45	0xb643b57f	-2.916291e-06
46	0xb67a4d90	-3.729805e-06
47	0xb61c2472	-2.3267025e-06
48	0xb5a6675c	-1.2398045e-06
49	0xb55a577f	-8.133865e-07
50	0xb58f8e35	-1.0695718e-06
51	0xb5f73375	-1.841791e-06
52	0xb655a852	-3.1837449e-06
53	0xb63f0d05	-2.8468796e-06
54	0xb5f4a8b9	-1.8228521e-06
55	0xb6550ecf	-3.1748093e-06
56	0xb5dfc428	-1.6671884e-06
57	0xb614703a	-2.2119043e-06
58	0xb6682ad6	-3.4595628e-06
59	0xb615ae23	-2.230409e-06
60	0xb642fbd9	-2.9054847e-06
61	0xb6712e83	-3.5938872e-06
62	0xb5d88257	-1.6131188e-06
63	0xb6533c39	-3.1476504e-06
64	0x35d3dfbc	1.578584e-06
65	0x367e26ac	3.787146e-06
66	0x3515d9cf	5.582378e-07
67	0x356a21f3	8.7221196e-07
68	0x34a2ea97	3.0345538e-07
69	0x358c21b7	1.0440625e-06
70	0x359afb34	1.1547004e-06
71	0x35e3848d	1.6951395e-06
72	0x3680ebc3	3.8421435e-06
73	0x35b0f595	1.3184496e-06
74	0x3643e9e3	2.9193404e-06
75	0xb4833faa	-2.4446973e-07
76	0x36566f66	3.1953327e-06
77	0x36500563	3.099755e-06
78	0x3601425d	1.9261126e-06
79	0x355ad036	8.1514315e-07
80	0x350a4803	5.1513797e-07
81	0x3492c737	2.7339567e-07
82	0x34bb21da	3.4856095e-07
83	0xb592ce7b	-1.0937941e-06
84	0x364bbb24	3.0358287e-06
85	0x359b585c	1.1574116e-06
86	0x363b3581	2.7896315e-06
87	0x358c37fc	1.0447106e-06
88	0xb3fef717	-1.1872742e-07
89	0x362bdf28	2.561088e-06
90	0x3626ddc0	2.4865003e-06
91	0xb4b03bd3	-3.2826082e-07
92	0x36295ce5	2.5237034e-06
93	0x36815359	3.8542025e-06
94	0xb2cbb7fb	-2.3715975e-08
95	0x361ae0c5	2.3078621e-06
96	0x3569e0a2	8.712615e-07
97	0x3641e4ce	2.8892423e-06
98	0xb4c9b36c	-3.7569714e-07
99	0xb4f038e6	-4.4744883e-07
100	0xb60acc9b	-2.0682699e-06
101	0xb4865eef	-2.5028518e-07
102	0xb61492e4	-2.213922e-06
103	0x35afbdb7	1.309373e-06
104	0x35db8948	1.6356726e-06
105	0x350c7a38	5.2331916e-07
106	0x35a056b9	1.1946169e-06
107	0xb59514ae	-1.1107384e-06
108	0x35007db2	4.7866627e-07
109	0x35a6e31b	1.243406e-06
110	0x368d15b5	4.2046545e-06
111	0xb5a1f357	-1.2066256e-06
112	0xb628e374	-2.5166346e-06
113	0xb604f447	-1.981172e-06
114	0xb585303c	-9.92331e-07
115	0xb58dc914	-1.056384e-06
116	0x357dd5fb	9.4561227e-07
117	0x34a78943	3.1206045e-07
118	0x359004d6	1.0730244e-06
119	0x3697ec3f	4.5276533e-06
120	0xb5a2dcf5	-1.2134248e-06
121	0x3262b4ab	1.31960105e-08
122	0x358a38c3	1.0298321e-06
123	0xb5717fde	-8.996557e-07
124	0x362c5e39	2.5684842e-06
125	0x365baa99	3.2732844e-06
126	0xb5f388e0	-1.8144747e-06
127	0x36143c81	2.2088936e-06
128	0xb619233e	-2.281929e-06
129	0xb5dae4e8	-1.6308886e-06
130	0xb61a81dc	-2.3023376e-06
131	0xb50909af	-5.105057e-07
132	0xb5f9be66	-1.8607359e-06
133	0xb5f3f7df	-1.8177051e-06
134	0xb613f8e3	-2.2049578e-06
135	0xb609ddc0	-2.0543666e-06
136	0xb61d600f	-2.3450737e-06
137	0xb602ad9a	-1.947256e-06
138	0xb5fc929c	-1.8818132e-06
139	0xb5f200f9	-1.8030688e-06
140	0xb59aacc2	-1.1524173e-06
141	0xb5a8f3e7	-1.258796e-06
142	0xb63e9e90	-2.8404502e-06
143	0xb601db29	-1.9350066e-06
144	0xb5d016fe	-1.5503899e-06
145	0xb5596d28	-8.099764e-07
146	0xb56fa0d6	-8.9268485e-07
147	0xb61f2069	-2.3711711e-06
148	0xb596a637	-1.1224246e-06
149	0xb5f14f52	-1.7978984e-06
150	0xb5832c5b	-9.77317e-07
151	0xb605341c	-1.9848876e-06
152	0xb611a958	-2.1705255e-06
153	0xb593fe20	-1.1026314e-06
154	0xb5c7aae9	-1.4876397e-06
155	0xb606ce3a	-2.0087596e-06
156	0xb6008003	-1.9148e-06
157	0xb6011670	-1.9235558e-06
158	0xb611eaba	-2.1743313e-06
159	0xb60fbbe7	-2.1418034e-06
160	0x35f76221	1.8431493e-06
161	0x35b5bd06	1.3540564e-06
162	0x35f0c9d0	1.7940129e-06
163	0x35729940	9.0375033e-07
164	0x35e2de14	1.6902945e-06
165	0x35c12ac6	1.4392069e-06
166	0x360d52cf	2.1058838e-06
167	0x35e6b888	1.7190041e-06
168	0x3604c87a	1.9786225e-06
169	0x35c32091	1.453811e-06
170	0x35a6d432	1.2429721e-06
171	0x35c12006	1.4388941e-06
172	0x35a7e0c5	1.2507886e-06
173	0x35ae30e0	1.2978235e-06
174	0x359b1050	1.1553147e-06
175	0x36081d98	2.0282805e-06
176	0x35dd306c	1.6479876e-06
177	0x35bb66e3	1.396253e-06
178	0x35a22e7f	1.2083473e-06
179	0x35dea0c7	1.6587081e-06
180	0x359d5c16	1.1724212e-06
181	0x35dba6d1	1.6365321e-06
182	0x3569e405	8.7131076e-07
183	0x355ce885	8.2294747e-07
184	0x35f02572	1.7892291e-06
185	0x35be5337	1.4180322e-06
186	0x35c9d297	1.5036957e-06
187	0x35f98222	1.8589819e-06
188	0x3597dc09	1.1314415e-06
189	0x35b91d8d	1.3792175e-06
190	0x35f3bdf3	1.8160193e-06
191	0x35af7b3b	1.3074381e-06

exp_avg_sq f4 [6, 32]
0	0x2f8c43ac	2.5513935e-10
1	0x3005d440	4.8686744e-10
2	0x2fcdc8a4	3.7431847e-10
3	0x2f71f7c2	2.2006844e-10
4	0x2f9119dc	2.639372e-10
5	0x2fc43246	3.5687914e-10
6	0x2f963128	2.731977e-10
7	0x2f43c2f0	1.7804402e-10
8	0x303ed128	6.9418826e-10
9	0x2f850312	2.419474e-10
10	0x2fe2edc9	4.1278117e-10
11	0x2f66f57f	2.1005596e-10
12	0x2ff5a7f3	4.4684575e-10
13	0x2fa47b6c	2.9919123e-10
14	0x2fe0709d	4.082538e-10
15	0x2fcd5ebc	3.7356596e-10
16	0x2f352415	1.6474673e-10
17	0x2f8a815d	2.5193972e-10
18	0x2f6fa8d8	2.1796909e-10
19	0x2f1f103a	1.446673e-10
20	0x2f13e9c7	1.3452627e-10
21	0x2f366ea6	1.6592114e-10
22	0x2fa9eee6	3.0910668e-10
23	0x2fd4a7ed	3.8681894e-10
24	0x2fa767e9	3.0450956e-10
25	0x2fdfa54c	4.0680914e-10
26	0x2f22f281	1.4819969e-10
27	0x2f66669c	2.0954832e-10
28	0x2fcbb838	3.705638e-10
29	0x301771ab	5.509501e-10
30	0x2f5ebd08	2.025794e-10
31	0x2fadd0d7	3.1616906e-10
32	0x2fb020de	3.2037567e-10
33	0x30186ee8	5.5454885e-10
34	0x2fcaefb1	3.6913897e-10
35	0x2f62ecb6	2.0638677e-10
36	0x2f80b45c	2.3411217e-10
37	0x2fb68ff1	3.3207884e-10
38	0x2f9ae03f	2.8171773e-10
39	0x2f810cf6	2.3474173e-10
40	0x304aa32c	7.3719053e-10
41	0x2f89f29d	2.5092542e-10
42	0x2fd538ad	3.8784745e-10
43	0x2f5b1051	1.9923731e-10
44	0x2ff783c2	4.5022658e-10
45	0x2fbc3e0c	3.4241088e-10
46	0x30029f5a	4.7520177e-10
47	0x2fdf2d65	4.0595718e-10
48	0x2f222c5b	1.4749572e-10
49	0x2f7f39e6	2.3212685e-10
50	0x2f6d3054	2.1572194e-10
51	0x2f211b0a	1.4652471e-10
52	0x2f423132	1.7661675e-10
53	0x2f67d7d3	2.1086004e-10
54	0x2fa0957e	2.921005e-10
55	0x2ff45102	4.44409e-10
56	0x2fa17eb3	2.9375755e-10
57	0x2fe96de2	4.246053e-10
58	0x2f5d0850	2.0102786e-10
59	0x2f86f648	2.454945e-10
60	0x2fcf6361	3.7723694e-10
61	0x3028f277	6.146261e-10
62	0x2f55d126	1.9446542e-10
63	0x2fb961e2	3.3720854e-10
64	0x303d24aa	6.88099e-10
65	0x30a178c6	1.1748618e-09
66	0x30836f9b	9.563225e-10
67	0x30131094	5.350185e-10
68	0x304c75d7	7.438223e-10
69	0x30716518	8.781895e-10
70	0x305f9cd4	8.1349794e-10
71	0x300bf5d8	5.091727e-10
72	0x30e66e64	1.6766077e-09
73	0x30237f81	5.948025e-10
74	0x3083e617	9.5969e-10
75	0x301ee57f	5.78062e-10
76	0x3094b293	1.0819171e-09
77	0x3049179f	7.315694e-10
78	0x3093cac2	1.0753285e-09
79	0x308bca4c	1.0171077e-09
80	0x30133625	5.355523e-10
81	0x3040c0d8	7.012324e-10
82	0x3024fd43	6.002276e-10
83	0x2fe3796c	4.1377335e-10
84	0x2fbf2705	3.4770423e-10
85	0x2ff3dea9	4.4359652e-10
86	0x30412f0b	7.0279843e-10
87	0x308993c2	1.0010057e-09
88	0x3061fad1	8.2210955e-10
89	0x308980ce	1.000467e-09
90	0x2fdeb38e	4.0509146e-10
91	0x3026de4f	6.070637e-10
92	0x30719b53	8.789602e-10
93	0x30b5c0c4	1.3224271e-09
94	0x3028bf53	6.138993e-10
95	0x3057a14a	7.844575e-10
96	0x2eb5428c	8.242748e-11
97	0x2f30fa64	1.6096063e-10
98	0x2f055124	1.2125106e-10
99	0x2e9a3e8a	7.0142184e-11
100	0x2ec72766	9.056471e-11
101	0x2efd3142	1.1513858e-10
102	0x2ec9bed8	9.1743224e-11
103	0x2e830843	5.958658e-11
104	0x2f755ee3	2.2316331e-10
105	0x2eadd639	7.905183e-11
106	0x2f128b63	1.3328143e-10
107	0x2e9a8b1b	7.027819e-11
108	0x2f196053	1.394949e-10
109	0x2ed028c5	9.465987e-11
110	0x2f241ce8	1.4925983e-10
111	0x2f02a56f	1.1882205e-10
112	0x2e843045	6.0112394e-11
113	0x2eb8f5c2	8.4110066e-11
114	0x2e998987	6.982064e-11
115	0x2e5a77ae	4.9673758e-11
116	0x2e3b2f17	4.25607e-11
117	0x2e66eda4	5.2507013e-11
118	0x2ed87c3e	9.8446126e-11
119	0x2f1d7fde	1.4324494e-10
120	0x2eddb29a	1.00816425e-10
121	0x2f0b0a75	1.2645691e-10
122	0x2e511b18	4.7545162e-11
123	0x2e92cf30	6.676115e-11
124	0x2f0995f5	1.2513353e-10
125	0x2f4a282f	1.8386069e-10
126	0x2e98136d	6.9156104e-11
127	0x2eeafe6b	1.0686282e-10
128	0x2d95bf77	1.7024366e-11
129	0x2e006c7e	2.920019e-11
130	0x2dffe6d6	2.9092655e-11
131	0x2d90f7c6	1.6480938e-11
132	0x2dd10186	2.3761226e-11
133	0x2df3176d	2.7636305e-11
134	0x2dcdbcb9	2.3389611e-11
135	0x2d4c6786	1.1619044e-11
136	0x2e4e5197	4.6911443e-11
137	0x2d9b44a9	1.7651951e-11
138	0x2e062a32	3.050555e-11
139	0x2d9c3f61	1.7763293e-11
140	0x2e086d01	3.1019635e-11
141	0x2da2dec4	1.8516196e-11
142	0x2de2c262	2.5779549e-11
143	0x2deed671	2.7152698e-11
144	0x2d8a4889	1.5720996e-11
145	0x2db37179	2.0400336e-11
146	0x2d90f9fd	1.6481922e-11
147	0x2d70f604	1.3697047e-11
148	0x2d0005f7	7.277282e-12
149	0x2d3d229b	1.075109e-11
150	0x2dc0eda2	2.1933403e-11
151	0x2dc16336	2.1985618e-11
152	0x2dde90f2	2.5302847e-11
153	0x2df20d7b	2.7518201e-11
154	0x2d13ac3d	8.394227e-12
155	0x2d87dd0a	1.5445884e-11
156	0x2dd623c7	2.4344872e-11
157	0x2e154d45	3.3947307e-11
158	0x2da463ac	1.8688905e-11
159	0x2dbaf23f	2.125333e-11
160	0x2dccd465	2.3286437e-11
161	0x2e39f2b2	4.2279687e-11
162	0x2e04c8a2	3.0191523e-11
163	0x2d967480	1.7104762e-11
164	0x2daf334e	1.991798e-11
165	0x2df711c6	2.8088542e-11
166	0x2dbe6e4a	2.1649477e-11
167	0x2d9911ae	1.7401938e-11
168	0x2e7efc85	5.7977196e-11
169	0x2db4df5e	2.0562826e-11
170	0x2e13d87f	3.3616217e-11
171	0x2d915a58	1.6524712e-11
172	0x2e1c7ba9	3.5580126e-11
173	0x2ddf9afc	2.5420992e-11
174	0x2e291d22	3.8452026e-11
175	0x2e04bdec	3.018201e-11
176	0x2d5d391c	1.2575076e-11
177	0x2da5c275	1.8844684e-11
178	0x2d93eda2	1.6817495e-11
179	0x2d59274e	1.2343749e-11
180	0x2d557c4a	1.2135246e-11
181	0x2d8440dc	1.5035466e-11
182	0x2ddb38ba	2.4922609e-11
183	0x2e1f7205	3.6253684e-11
184	0x2dd49bc6	2.4170787e-11
185	0x2e0ec696	3.246344e-11
186	0x2d769a06	1.4017681e-11
187	0x2d9ccc36	1.7825835e-11
188	0x2e0dc2b7	3.223263e-11
189	0x2e5247cb	4.7812237e-11
190	0x2d8d1c86	1.6042511e-11
191	0x2df6d5c7	2.8061898e-11

exp_avg f4 [6]
0	0x37805975	1.5300446e-05
1	0xb6a62a60	-4.9521186e-06
2	0x365d1387	3.2942933e-06
3	0x356d996a	8.8512627e-07
4	0xb67a4cef	-3.7297684e-06
5	0x364c2a11	3.0422855e-06

exp_avg_sq f4 [6]
0	0x30a5e113	1.20693e-09
1	0x30af1d58	1.2741266e-09
2	0x314f943e	3.020673e-09
3	0x2fd43d8a	3.8606301e-10
4	0x2ebc04a2	8.550073e-11
5	0x2edc4bbc	1.0017895e-10

0.weight f4 [32, 6]
0	0x3eb86f6d	0.3602251
1	0x3ef68657	0.48149368
2	0x3f320440	0.69537735
3	0x3f51eabe	0.81998813
4	0xbec26034	-0.37964022
5	0xbe488db4	-0.19585305
6	0x3eb95060	0.36194134
7	0x3e7e7dde	0.24852702
8	0x3f4b8acd	0.7950867
9	0x3f5fd8af	0.8744001
10	0xbe43d7bd	-0.19125266
11	0xbf2c63dc	-0.67339873
12	0xbe87cfe9	-0.2652581
13	0xbda7d9b1	-0.08195818
14	0x3f672481	0.90290076
15	0x3e1b22c9	0.15149988
16	0xbf8451c7	-1.0337456
17	0x3fc2bb55	1.5213419
18	0xbdf9f047	-0.122040324
19	0xbe8a9d24	-0.27073014
20	0xbe9ddbef	-0.3083186
21	0x3f9b0470	1.2110729
22	0xbebaaed1	-0.364615
23	0x3f865e03	1.049744
24	0xbe016d71	-0.12639405
25	0x3f09274e	0.535756
26	0x3e20805d	0.15673967
27	0x3ec8b6a8	0.39201856
28	0xbf1402ed	-0.57816964
29	0xbef07c10	-0.46969652
30	0xbf2187f2	-0.6309806
31	0xbe1e14e4	-0.15437657
32	0xbf7e7223	-0.9939291
33	0xbfb15a0d	-1.3855606
34	0x3dd89a26	0.105762765
35	0x3eaec451	0.34134153
36	0x3d739c16	0.059475027
37	0xbdc0c0a4	-0.09411743
38	0x3e483a43	0.19553475
39	0x3f8bd569	1.0924503
40	0xbeb91bf6	-0.36154145
41	0x3fccfd81	1.6014863
42	0x3ee3ac3b	0.4446734
43	0x3ef4e399	0.47829893
44	0xbe27b7d5	-0.1637872
45	0xbecfe8da	-0.4060734
46	0xbd518a81	-0.05115748
47	0xbed3ab1c	-0.41341484
48	0xbf0d528d	-0.5520409
49	0xbf0681d9	-0.5254188
50	0xbc65b5de	-0.014020411
51	0x3cee6dff	0.029105185
52	0x3cb8aace	0.022542384
53	0xbe4b5926	-0.19858226
54	0xbe8da20f	-0.27662703
55	0xbef9dc2a	-0.48800784
56	0xbf17f54b	-0.5935866
57	0x3b6eb7d8	0.0036425497
58	0x3f01bf5f	0.50682634
59	0x3f009337	0.5022463
60	0xbf010f3d	-0.50413877
61	0xbe175502	-0.14778522
62	0xbf3ea502	-0.7447053
63	0xbfa8f982	-1.3201144
64	0xbdec7c04	-0.115470916
65	0x3ee2d1fe	0.44300836
66	0x3f1d1815	0.6136487
67	0x3ef8572e	0.48504013
68	0x3f4c4ac5	0.7980159
69	0x3f3dc765	0.74132377
70	0xbe61f8d4	-0.22067577
71	0xbec5d96a	-0.38642436
72	0xbec54b66	-0.38534087
73	0xbf0c8295	-0.5488675
74	0xbf1d4bc0	-0.6144371
75	0xbf8ece25	-1.115666
76	0x3f07e504	0.53083825
77	0xbe1fbf04	-0.1560021
78	0x3e66c807	0.22537242
79	0x3e93674b	0.28789744
80	0x3f1533b9	0.5828205
81	0xbf0c2258	-0.54739904
82	0x3d138b49	0.036021505
83	0xbe21526c	-0.15754098
84	0x3ec97a5e	0.3935117
85	0x3f367551	0.7127276
86	0x3e9d2e10	0.30699205
87	0xbf14257b	-0.5786969
88	0xbe3026ff	-0.17202376
89	0xbf6a1ded	-0.91451913
90	0x3f1c7ec6	0.6113094
91	0x3f3cc39b	0.7373597
92	0x3e334477	0.17506586
93	0x3f417fd0	0.7558565
94	0xbe53fee1	-0.20702697
95	0xbeffde5f	-0.49974343
96	0x3e1cf9ec	0.15329713
97	0x3f305cc0	0.68891525
98	0xbda555d2	-0.080730096
99	0xbeb8e372	-0.36111027
100	0xbeb39730	-0.35076284
101	0xbed5fc44	-0.41794026
102	0x3e114ecf	0.1419022
103	0x3f2472e1	0.6423779
104	0xbf4231d9	-0.7585731
105	0xbf5d4ef1	-0.8644858
106	0xbea2155f	-0.3165693
107	0x3f7e2d03	0.9928743
108	0xbe949be4	-0.29025185
109	0x3f2b042b	0.66803235
110	0xbf8862a4	-1.0655103
111	0x3dea769f	0.114484064
112	0xbe85f0e3	-0.26160344
113	0x3ecec2cd	0.40382996
114	0xbf032e64	-0.5124266
115	0xbe7ca182	-0.24670985
116	0xbf57a813	-0.84240836
117	0xbefab57a	-0.4896658
118	0x3e7abbc9	0.24485697
119	0x3d0453bc	0.032306418
120	0xbdae7530	-0.085184455
121	0xbebf7f7d	-0.37401953
122	0xbf110ab9	-0.56656986
123	0xbf382b44	-0.7194102
124	0x3e95b54a	0.29239875
125	0x3ef01d94	0.46897566
126	0x3ed7f568	0.42179418
127	0x3efd7a1f	0.49507234
128	0x3f0f8016	0.5605482
129	0x3e1c80d5	0.1528352
130	0x3de78b0d	0.11305819
131	0xbe0bab3a	-0.13639536
132	0xbf095601	-0.53646857
133	0xbf040124	-0.5156424
134	0x3e99015f	0.2988386
135	0x3f8deaf3	1.1087326
136	0xbeee62ac	-0.46559656
137	0x3f9ba289	1.2158977
138	0xbede3a56	-0.43403882
139	0xbf3d2c24	-0.7389548
140	0xbe4f0652	-0.20217255
141	0xbf170e32	-0.59006035
142	0x3ee80829	0.45318726
143	0xbcdc047c	-0.026857607
144	0xbbcc5435	-0.006235624
145	0xbf0a846b	-0.54108304
146	0x3f211652	0.62924683
147	0xbf87a10a	-1.059602
148	0x3eaf98ae	0.34296173
149	0xbf13f9db	-0.57803124
150	0xbef0da34	-0.47041476
151	0xbf45ae5d	-0.7721918
152	0xbeae6e8a	-0.3406871
153	0xbeab0d01	-0.3340836
154	0x3eedf98b	0.4647945
155	0x3e9863b8	0.2976358
156	0xbebfec8a	-0.37485152
157	0xbeb192be	-0.34682268
158	0xbf3d744d	-0.74005586
159	0xbfb4eae3	-1.4134182
160	0x3f237998	0.6385741
161	0xbdf31947	-0.11870056
162	0xbdcc7b9e	-0.099845156
163	0xbeb1ec89	-0.34750775
164	0x3ef3fa43	0.47651872
165	0xbe974c2b	-0.295503
166	0xbe4164cf	-0.18886112
167	0x3f7a341c	0.9773576
168	0xbf0d9dbe	-0.5531882
169	0xbde7c633	-0.113171004
170	0xbf4faad7	-0.81120056
171	0xbf2db72d	-0.6785763
172	0xbecc08be	-0.3985042
173	0x3f0cc650	0.549901
174	0xbf10131c	-0.5627916
175	0xbf118683	-0.56845874
176	0xbeec7543	-0.46183214
177	0x3f71ae90	0.94406986
178	0xbe2f922b	-0.17145602
179	0x3f5c81e8	0.8613572
180	0xbd24ad5b	-0.040204387
181	0x3f368aa9	0.7130533
182	0xbf1e4828	-0.6182885
183	0x3e302de3	0.17205004
184	0xbe7bb4f8	-0.24580753
185	0xbddd4ece	-0.108060464
186	0x3ea61adf	0.32442376
187	0xbee7888c	-0.45221364
188	0x3f7ef29b	0.99588937
189	0xbf920cb8	-1.1410131
190	0x3ed7d2d0	0.42153025
191	0xbf2a5325	-0.6653312

0.bias f4 [32]
0	0xbec8ce01	-0.39219669
1	0xbe5efcc7	-0.21776114
2	0xbf018d8c	-0.5060661
3	0x3e9147b0	0.28375006
4	0x3d11f64b	0.035635274
5	0x3ea277c4	0.31732
6	0x3d7dd9f3	0.06197543
7	0x3d9b8870	0.07594383
8	0x3ddd80cd	0.108155824
9	0x3dbae5af	0.0912584
10	0x3d399c2b	0.04531495
11	0xbe0c542d	-0.13703986
12	0x3eb30434	0.34964144
13	0xbe8f7592	-0.28019387
14	0x3c34fd67	0.011046744
15	0x3cbd0869	0.0230753
16	0xbd76c096	-0.060242258
17	0x3eb4e447	0.35330412
18	0x3e0c8a6b	0.13724677
19	0x3e37c87b	0.17947571
20	0x3ec3cabc	0.38240612
21	0xbd941532	-0.07230605
22	0xbd92190f	-0.07133686
23	0x3dba84b3	0.091073416
24	0xbd886905	-0.06660656
25	0x3e060c83	0.1309071
26	0x3e025048	0.12725937
27	0x3db3e4a7	0.08783846
28	0x3d8f7dd1	0.070064195
29	0x3e14e6b7	0.14541136
30	0xbded4fd3	-0.11587491
31	0xbe344199	-0.17603149
